{
  "format": "layers-model",
  "generatedBy": "keras v2.4.0",
  "convertedBy": "TensorFlow.js Converter v2.0.1.post1",
  "modelTopology": {
    "keras_version": "2.4.0",
    "backend": "tensorflow",
    "model_config": {
      "class_name": "Model",
      "config": {
        "name": "generator",
        "layers": [
          {
            "class_name": "InputLayer",
            "config": {
              "batch_input_shape": [
                null,
                null,
                null,
                3
              ],
              "dtype": "float32",
              "sparse": false,
              "ragged": false,
              "name": "LR_input"
            },
            "name": "LR_input",
            "inbound_nodes": []
          },
          {
            "class_name": "Conv2D",
            "config": {
              "name": "Pre_blocks_conv",
              "trainable": true,
              "dtype": "float32",
              "filters": 32,
              "kernel_size": [
                3,
                3
              ],
              "strides": [
                1,
                1
              ],
              "padding": "same",
              "data_format": "channels_last",
              "dilation_rate": [
                1,
                1
              ],
              "groups": 1,
              "activation": "linear",
              "use_bias": true,
              "kernel_initializer": {
                "class_name": "RandomUniform",
                "config": {
                  "minval": -0.05,
                  "maxval": 0.05,
                  "seed": null
                }
              },
              "bias_initializer": {
                "class_name": "Zeros",
                "config": {}
              },
              "kernel_regularizer": null,
              "bias_regularizer": null,
              "activity_regularizer": null,
              "kernel_constraint": null,
              "bias_constraint": null
            },
            "name": "Pre_blocks_conv",
            "inbound_nodes": [
              [
                [
                  "LR_input",
                  0,
                  0,
                  {}
                ]
              ]
            ]
          },
          {
            "class_name": "Conv2D",
            "config": {
              "name": "F_1_1_1",
              "trainable": true,
              "dtype": "float32",
              "filters": 32,
              "kernel_size": [
                3,
                3
              ],
              "strides": [
                1,
                1
              ],
              "padding": "same",
              "data_format": "channels_last",
              "dilation_rate": [
                1,
                1
              ],
              "groups": 1,
              "activation": "linear",
              "use_bias": true,
              "kernel_initializer": {
                "class_name": "RandomUniform",
                "config": {
                  "minval": -0.05,
                  "maxval": 0.05,
                  "seed": null
                }
              },
              "bias_initializer": {
                "class_name": "Zeros",
                "config": {}
              },
              "kernel_regularizer": null,
              "bias_regularizer": null,
              "activity_regularizer": null,
              "kernel_constraint": null,
              "bias_constraint": null
            },
            "name": "F_1_1_1",
            "inbound_nodes": [
              [
                [
                  "Pre_blocks_conv",
                  0,
                  0,
                  {}
                ]
              ]
            ]
          },
          {
            "class_name": "Activation",
            "config": {
              "name": "F_1_1_1_Relu",
              "trainable": true,
              "dtype": "float32",
              "activation": "relu"
            },
            "name": "F_1_1_1_Relu",
            "inbound_nodes": [
              [
                [
                  "F_1_1_1",
                  0,
                  0,
                  {}
                ]
              ]
            ]
          },
          {
            "class_name": "Concatenate",
            "config": {
              "name": "RDB_Concat_1_1_1",
              "trainable": true,
              "dtype": "float32",
              "axis": 3
            },
            "name": "RDB_Concat_1_1_1",
            "inbound_nodes": [
              [
                [
                  "Pre_blocks_conv",
                  0,
                  0,
                  {}
                ],
                [
                  "F_1_1_1_Relu",
                  0,
                  0,
                  {}
                ]
              ]
            ]
          },
          {
            "class_name": "Conv2D",
            "config": {
              "name": "F_1_1_2",
              "trainable": true,
              "dtype": "float32",
              "filters": 32,
              "kernel_size": [
                3,
                3
              ],
              "strides": [
                1,
                1
              ],
              "padding": "same",
              "data_format": "channels_last",
              "dilation_rate": [
                1,
                1
              ],
              "groups": 1,
              "activation": "linear",
              "use_bias": true,
              "kernel_initializer": {
                "class_name": "RandomUniform",
                "config": {
                  "minval": -0.05,
                  "maxval": 0.05,
                  "seed": null
                }
              },
              "bias_initializer": {
                "class_name": "Zeros",
                "config": {}
              },
              "kernel_regularizer": null,
              "bias_regularizer": null,
              "activity_regularizer": null,
              "kernel_constraint": null,
              "bias_constraint": null
            },
            "name": "F_1_1_2",
            "inbound_nodes": [
              [
                [
                  "RDB_Concat_1_1_1",
                  0,
                  0,
                  {}
                ]
              ]
            ]
          },
          {
            "class_name": "Activation",
            "config": {
              "name": "F_1_1_2_Relu",
              "trainable": true,
              "dtype": "float32",
              "activation": "relu"
            },
            "name": "F_1_1_2_Relu",
            "inbound_nodes": [
              [
                [
                  "F_1_1_2",
                  0,
                  0,
                  {}
                ]
              ]
            ]
          },
          {
            "class_name": "Concatenate",
            "config": {
              "name": "RDB_Concat_1_1_2",
              "trainable": true,
              "dtype": "float32",
              "axis": 3
            },
            "name": "RDB_Concat_1_1_2",
            "inbound_nodes": [
              [
                [
                  "RDB_Concat_1_1_1",
                  0,
                  0,
                  {}
                ],
                [
                  "F_1_1_2_Relu",
                  0,
                  0,
                  {}
                ]
              ]
            ]
          },
          {
            "class_name": "Conv2D",
            "config": {
              "name": "F_1_1_3",
              "trainable": true,
              "dtype": "float32",
              "filters": 32,
              "kernel_size": [
                3,
                3
              ],
              "strides": [
                1,
                1
              ],
              "padding": "same",
              "data_format": "channels_last",
              "dilation_rate": [
                1,
                1
              ],
              "groups": 1,
              "activation": "linear",
              "use_bias": true,
              "kernel_initializer": {
                "class_name": "RandomUniform",
                "config": {
                  "minval": -0.05,
                  "maxval": 0.05,
                  "seed": null
                }
              },
              "bias_initializer": {
                "class_name": "Zeros",
                "config": {}
              },
              "kernel_regularizer": null,
              "bias_regularizer": null,
              "activity_regularizer": null,
              "kernel_constraint": null,
              "bias_constraint": null
            },
            "name": "F_1_1_3",
            "inbound_nodes": [
              [
                [
                  "RDB_Concat_1_1_2",
                  0,
                  0,
                  {}
                ]
              ]
            ]
          },
          {
            "class_name": "Activation",
            "config": {
              "name": "F_1_1_3_Relu",
              "trainable": true,
              "dtype": "float32",
              "activation": "relu"
            },
            "name": "F_1_1_3_Relu",
            "inbound_nodes": [
              [
                [
                  "F_1_1_3",
                  0,
                  0,
                  {}
                ]
              ]
            ]
          },
          {
            "class_name": "Concatenate",
            "config": {
              "name": "RDB_Concat_1_1_3",
              "trainable": true,
              "dtype": "float32",
              "axis": 3
            },
            "name": "RDB_Concat_1_1_3",
            "inbound_nodes": [
              [
                [
                  "RDB_Concat_1_1_2",
                  0,
                  0,
                  {}
                ],
                [
                  "F_1_1_3_Relu",
                  0,
                  0,
                  {}
                ]
              ]
            ]
          },
          {
            "class_name": "Conv2D",
            "config": {
              "name": "F_1_1_4",
              "trainable": true,
              "dtype": "float32",
              "filters": 32,
              "kernel_size": [
                3,
                3
              ],
              "strides": [
                1,
                1
              ],
              "padding": "same",
              "data_format": "channels_last",
              "dilation_rate": [
                1,
                1
              ],
              "groups": 1,
              "activation": "linear",
              "use_bias": true,
              "kernel_initializer": {
                "class_name": "RandomUniform",
                "config": {
                  "minval": -0.05,
                  "maxval": 0.05,
                  "seed": null
                }
              },
              "bias_initializer": {
                "class_name": "Zeros",
                "config": {}
              },
              "kernel_regularizer": null,
              "bias_regularizer": null,
              "activity_regularizer": null,
              "kernel_constraint": null,
              "bias_constraint": null
            },
            "name": "F_1_1_4",
            "inbound_nodes": [
              [
                [
                  "RDB_Concat_1_1_3",
                  0,
                  0,
                  {}
                ]
              ]
            ]
          },
          {
            "class_name": "Activation",
            "config": {
              "name": "F_1_1_4_Relu",
              "trainable": true,
              "dtype": "float32",
              "activation": "relu"
            },
            "name": "F_1_1_4_Relu",
            "inbound_nodes": [
              [
                [
                  "F_1_1_4",
                  0,
                  0,
                  {}
                ]
              ]
            ]
          },
          {
            "class_name": "Concatenate",
            "config": {
              "name": "RDB_Concat_1_1_4",
              "trainable": true,
              "dtype": "float32",
              "axis": 3
            },
            "name": "RDB_Concat_1_1_4",
            "inbound_nodes": [
              [
                [
                  "RDB_Concat_1_1_3",
                  0,
                  0,
                  {}
                ],
                [
                  "F_1_1_4_Relu",
                  0,
                  0,
                  {}
                ]
              ]
            ]
          },
          {
            "class_name": "Conv2D",
            "config": {
              "name": "LFF_1_1",
              "trainable": true,
              "dtype": "float32",
              "filters": 32,
              "kernel_size": [
                3,
                3
              ],
              "strides": [
                1,
                1
              ],
              "padding": "same",
              "data_format": "channels_last",
              "dilation_rate": [
                1,
                1
              ],
              "groups": 1,
              "activation": "linear",
              "use_bias": true,
              "kernel_initializer": {
                "class_name": "RandomUniform",
                "config": {
                  "minval": -0.05,
                  "maxval": 0.05,
                  "seed": null
                }
              },
              "bias_initializer": {
                "class_name": "Zeros",
                "config": {}
              },
              "kernel_regularizer": null,
              "bias_regularizer": null,
              "activity_regularizer": null,
              "kernel_constraint": null,
              "bias_constraint": null
            },
            "name": "LFF_1_1",
            "inbound_nodes": [
              [
                [
                  "RDB_Concat_1_1_4",
                  0,
                  0,
                  {}
                ]
              ]
            ]
          },
          {
            "class_name": "MultiplyBeta",
            "config": {
              "name": "multiply_beta_725",
              "trainable": true,
              "dtype": "float32",
              "beta": 0.2
            },
            "name": "multiply_beta_725",
            "inbound_nodes": [
              [
                [
                  "LFF_1_1",
                  0,
                  0,
                  {}
                ]
              ]
            ]
          },
          {
            "class_name": "Add",
            "config": {
              "name": "LRL_1_1",
              "trainable": true,
              "dtype": "float32"
            },
            "name": "LRL_1_1",
            "inbound_nodes": [
              [
                [
                  "Pre_blocks_conv",
                  0,
                  0,
                  {}
                ],
                [
                  "multiply_beta_725",
                  0,
                  0,
                  {}
                ]
              ]
            ]
          },
          {
            "class_name": "Conv2D",
            "config": {
              "name": "F_1_2_1",
              "trainable": true,
              "dtype": "float32",
              "filters": 32,
              "kernel_size": [
                3,
                3
              ],
              "strides": [
                1,
                1
              ],
              "padding": "same",
              "data_format": "channels_last",
              "dilation_rate": [
                1,
                1
              ],
              "groups": 1,
              "activation": "linear",
              "use_bias": true,
              "kernel_initializer": {
                "class_name": "RandomUniform",
                "config": {
                  "minval": -0.05,
                  "maxval": 0.05,
                  "seed": null
                }
              },
              "bias_initializer": {
                "class_name": "Zeros",
                "config": {}
              },
              "kernel_regularizer": null,
              "bias_regularizer": null,
              "activity_regularizer": null,
              "kernel_constraint": null,
              "bias_constraint": null
            },
            "name": "F_1_2_1",
            "inbound_nodes": [
              [
                [
                  "LRL_1_1",
                  0,
                  0,
                  {}
                ]
              ]
            ]
          },
          {
            "class_name": "Activation",
            "config": {
              "name": "F_1_2_1_Relu",
              "trainable": true,
              "dtype": "float32",
              "activation": "relu"
            },
            "name": "F_1_2_1_Relu",
            "inbound_nodes": [
              [
                [
                  "F_1_2_1",
                  0,
                  0,
                  {}
                ]
              ]
            ]
          },
          {
            "class_name": "Concatenate",
            "config": {
              "name": "RDB_Concat_1_2_1",
              "trainable": true,
              "dtype": "float32",
              "axis": 3
            },
            "name": "RDB_Concat_1_2_1",
            "inbound_nodes": [
              [
                [
                  "LRL_1_1",
                  0,
                  0,
                  {}
                ],
                [
                  "F_1_2_1_Relu",
                  0,
                  0,
                  {}
                ]
              ]
            ]
          },
          {
            "class_name": "Conv2D",
            "config": {
              "name": "F_1_2_2",
              "trainable": true,
              "dtype": "float32",
              "filters": 32,
              "kernel_size": [
                3,
                3
              ],
              "strides": [
                1,
                1
              ],
              "padding": "same",
              "data_format": "channels_last",
              "dilation_rate": [
                1,
                1
              ],
              "groups": 1,
              "activation": "linear",
              "use_bias": true,
              "kernel_initializer": {
                "class_name": "RandomUniform",
                "config": {
                  "minval": -0.05,
                  "maxval": 0.05,
                  "seed": null
                }
              },
              "bias_initializer": {
                "class_name": "Zeros",
                "config": {}
              },
              "kernel_regularizer": null,
              "bias_regularizer": null,
              "activity_regularizer": null,
              "kernel_constraint": null,
              "bias_constraint": null
            },
            "name": "F_1_2_2",
            "inbound_nodes": [
              [
                [
                  "RDB_Concat_1_2_1",
                  0,
                  0,
                  {}
                ]
              ]
            ]
          },
          {
            "class_name": "Activation",
            "config": {
              "name": "F_1_2_2_Relu",
              "trainable": true,
              "dtype": "float32",
              "activation": "relu"
            },
            "name": "F_1_2_2_Relu",
            "inbound_nodes": [
              [
                [
                  "F_1_2_2",
                  0,
                  0,
                  {}
                ]
              ]
            ]
          },
          {
            "class_name": "Concatenate",
            "config": {
              "name": "RDB_Concat_1_2_2",
              "trainable": true,
              "dtype": "float32",
              "axis": 3
            },
            "name": "RDB_Concat_1_2_2",
            "inbound_nodes": [
              [
                [
                  "RDB_Concat_1_2_1",
                  0,
                  0,
                  {}
                ],
                [
                  "F_1_2_2_Relu",
                  0,
                  0,
                  {}
                ]
              ]
            ]
          },
          {
            "class_name": "Conv2D",
            "config": {
              "name": "F_1_2_3",
              "trainable": true,
              "dtype": "float32",
              "filters": 32,
              "kernel_size": [
                3,
                3
              ],
              "strides": [
                1,
                1
              ],
              "padding": "same",
              "data_format": "channels_last",
              "dilation_rate": [
                1,
                1
              ],
              "groups": 1,
              "activation": "linear",
              "use_bias": true,
              "kernel_initializer": {
                "class_name": "RandomUniform",
                "config": {
                  "minval": -0.05,
                  "maxval": 0.05,
                  "seed": null
                }
              },
              "bias_initializer": {
                "class_name": "Zeros",
                "config": {}
              },
              "kernel_regularizer": null,
              "bias_regularizer": null,
              "activity_regularizer": null,
              "kernel_constraint": null,
              "bias_constraint": null
            },
            "name": "F_1_2_3",
            "inbound_nodes": [
              [
                [
                  "RDB_Concat_1_2_2",
                  0,
                  0,
                  {}
                ]
              ]
            ]
          },
          {
            "class_name": "Activation",
            "config": {
              "name": "F_1_2_3_Relu",
              "trainable": true,
              "dtype": "float32",
              "activation": "relu"
            },
            "name": "F_1_2_3_Relu",
            "inbound_nodes": [
              [
                [
                  "F_1_2_3",
                  0,
                  0,
                  {}
                ]
              ]
            ]
          },
          {
            "class_name": "Concatenate",
            "config": {
              "name": "RDB_Concat_1_2_3",
              "trainable": true,
              "dtype": "float32",
              "axis": 3
            },
            "name": "RDB_Concat_1_2_3",
            "inbound_nodes": [
              [
                [
                  "RDB_Concat_1_2_2",
                  0,
                  0,
                  {}
                ],
                [
                  "F_1_2_3_Relu",
                  0,
                  0,
                  {}
                ]
              ]
            ]
          },
          {
            "class_name": "Conv2D",
            "config": {
              "name": "F_1_2_4",
              "trainable": true,
              "dtype": "float32",
              "filters": 32,
              "kernel_size": [
                3,
                3
              ],
              "strides": [
                1,
                1
              ],
              "padding": "same",
              "data_format": "channels_last",
              "dilation_rate": [
                1,
                1
              ],
              "groups": 1,
              "activation": "linear",
              "use_bias": true,
              "kernel_initializer": {
                "class_name": "RandomUniform",
                "config": {
                  "minval": -0.05,
                  "maxval": 0.05,
                  "seed": null
                }
              },
              "bias_initializer": {
                "class_name": "Zeros",
                "config": {}
              },
              "kernel_regularizer": null,
              "bias_regularizer": null,
              "activity_regularizer": null,
              "kernel_constraint": null,
              "bias_constraint": null
            },
            "name": "F_1_2_4",
            "inbound_nodes": [
              [
                [
                  "RDB_Concat_1_2_3",
                  0,
                  0,
                  {}
                ]
              ]
            ]
          },
          {
            "class_name": "Activation",
            "config": {
              "name": "F_1_2_4_Relu",
              "trainable": true,
              "dtype": "float32",
              "activation": "relu"
            },
            "name": "F_1_2_4_Relu",
            "inbound_nodes": [
              [
                [
                  "F_1_2_4",
                  0,
                  0,
                  {}
                ]
              ]
            ]
          },
          {
            "class_name": "Concatenate",
            "config": {
              "name": "RDB_Concat_1_2_4",
              "trainable": true,
              "dtype": "float32",
              "axis": 3
            },
            "name": "RDB_Concat_1_2_4",
            "inbound_nodes": [
              [
                [
                  "RDB_Concat_1_2_3",
                  0,
                  0,
                  {}
                ],
                [
                  "F_1_2_4_Relu",
                  0,
                  0,
                  {}
                ]
              ]
            ]
          },
          {
            "class_name": "Conv2D",
            "config": {
              "name": "LFF_1_2",
              "trainable": true,
              "dtype": "float32",
              "filters": 32,
              "kernel_size": [
                3,
                3
              ],
              "strides": [
                1,
                1
              ],
              "padding": "same",
              "data_format": "channels_last",
              "dilation_rate": [
                1,
                1
              ],
              "groups": 1,
              "activation": "linear",
              "use_bias": true,
              "kernel_initializer": {
                "class_name": "RandomUniform",
                "config": {
                  "minval": -0.05,
                  "maxval": 0.05,
                  "seed": null
                }
              },
              "bias_initializer": {
                "class_name": "Zeros",
                "config": {}
              },
              "kernel_regularizer": null,
              "bias_regularizer": null,
              "activity_regularizer": null,
              "kernel_constraint": null,
              "bias_constraint": null
            },
            "name": "LFF_1_2",
            "inbound_nodes": [
              [
                [
                  "RDB_Concat_1_2_4",
                  0,
                  0,
                  {}
                ]
              ]
            ]
          },
          {
            "class_name": "MultiplyBeta",
            "config": {
              "name": "multiply_beta_726",
              "trainable": true,
              "dtype": "float32",
              "beta": 0.2
            },
            "name": "multiply_beta_726",
            "inbound_nodes": [
              [
                [
                  "LFF_1_2",
                  0,
                  0,
                  {}
                ]
              ]
            ]
          },
          {
            "class_name": "Add",
            "config": {
              "name": "LRL_1_2",
              "trainable": true,
              "dtype": "float32"
            },
            "name": "LRL_1_2",
            "inbound_nodes": [
              [
                [
                  "LRL_1_1",
                  0,
                  0,
                  {}
                ],
                [
                  "multiply_beta_726",
                  0,
                  0,
                  {}
                ]
              ]
            ]
          },
          {
            "class_name": "Conv2D",
            "config": {
              "name": "F_1_3_1",
              "trainable": true,
              "dtype": "float32",
              "filters": 32,
              "kernel_size": [
                3,
                3
              ],
              "strides": [
                1,
                1
              ],
              "padding": "same",
              "data_format": "channels_last",
              "dilation_rate": [
                1,
                1
              ],
              "groups": 1,
              "activation": "linear",
              "use_bias": true,
              "kernel_initializer": {
                "class_name": "RandomUniform",
                "config": {
                  "minval": -0.05,
                  "maxval": 0.05,
                  "seed": null
                }
              },
              "bias_initializer": {
                "class_name": "Zeros",
                "config": {}
              },
              "kernel_regularizer": null,
              "bias_regularizer": null,
              "activity_regularizer": null,
              "kernel_constraint": null,
              "bias_constraint": null
            },
            "name": "F_1_3_1",
            "inbound_nodes": [
              [
                [
                  "LRL_1_2",
                  0,
                  0,
                  {}
                ]
              ]
            ]
          },
          {
            "class_name": "Activation",
            "config": {
              "name": "F_1_3_1_Relu",
              "trainable": true,
              "dtype": "float32",
              "activation": "relu"
            },
            "name": "F_1_3_1_Relu",
            "inbound_nodes": [
              [
                [
                  "F_1_3_1",
                  0,
                  0,
                  {}
                ]
              ]
            ]
          },
          {
            "class_name": "Concatenate",
            "config": {
              "name": "RDB_Concat_1_3_1",
              "trainable": true,
              "dtype": "float32",
              "axis": 3
            },
            "name": "RDB_Concat_1_3_1",
            "inbound_nodes": [
              [
                [
                  "LRL_1_2",
                  0,
                  0,
                  {}
                ],
                [
                  "F_1_3_1_Relu",
                  0,
                  0,
                  {}
                ]
              ]
            ]
          },
          {
            "class_name": "Conv2D",
            "config": {
              "name": "F_1_3_2",
              "trainable": true,
              "dtype": "float32",
              "filters": 32,
              "kernel_size": [
                3,
                3
              ],
              "strides": [
                1,
                1
              ],
              "padding": "same",
              "data_format": "channels_last",
              "dilation_rate": [
                1,
                1
              ],
              "groups": 1,
              "activation": "linear",
              "use_bias": true,
              "kernel_initializer": {
                "class_name": "RandomUniform",
                "config": {
                  "minval": -0.05,
                  "maxval": 0.05,
                  "seed": null
                }
              },
              "bias_initializer": {
                "class_name": "Zeros",
                "config": {}
              },
              "kernel_regularizer": null,
              "bias_regularizer": null,
              "activity_regularizer": null,
              "kernel_constraint": null,
              "bias_constraint": null
            },
            "name": "F_1_3_2",
            "inbound_nodes": [
              [
                [
                  "RDB_Concat_1_3_1",
                  0,
                  0,
                  {}
                ]
              ]
            ]
          },
          {
            "class_name": "Activation",
            "config": {
              "name": "F_1_3_2_Relu",
              "trainable": true,
              "dtype": "float32",
              "activation": "relu"
            },
            "name": "F_1_3_2_Relu",
            "inbound_nodes": [
              [
                [
                  "F_1_3_2",
                  0,
                  0,
                  {}
                ]
              ]
            ]
          },
          {
            "class_name": "Concatenate",
            "config": {
              "name": "RDB_Concat_1_3_2",
              "trainable": true,
              "dtype": "float32",
              "axis": 3
            },
            "name": "RDB_Concat_1_3_2",
            "inbound_nodes": [
              [
                [
                  "RDB_Concat_1_3_1",
                  0,
                  0,
                  {}
                ],
                [
                  "F_1_3_2_Relu",
                  0,
                  0,
                  {}
                ]
              ]
            ]
          },
          {
            "class_name": "Conv2D",
            "config": {
              "name": "F_1_3_3",
              "trainable": true,
              "dtype": "float32",
              "filters": 32,
              "kernel_size": [
                3,
                3
              ],
              "strides": [
                1,
                1
              ],
              "padding": "same",
              "data_format": "channels_last",
              "dilation_rate": [
                1,
                1
              ],
              "groups": 1,
              "activation": "linear",
              "use_bias": true,
              "kernel_initializer": {
                "class_name": "RandomUniform",
                "config": {
                  "minval": -0.05,
                  "maxval": 0.05,
                  "seed": null
                }
              },
              "bias_initializer": {
                "class_name": "Zeros",
                "config": {}
              },
              "kernel_regularizer": null,
              "bias_regularizer": null,
              "activity_regularizer": null,
              "kernel_constraint": null,
              "bias_constraint": null
            },
            "name": "F_1_3_3",
            "inbound_nodes": [
              [
                [
                  "RDB_Concat_1_3_2",
                  0,
                  0,
                  {}
                ]
              ]
            ]
          },
          {
            "class_name": "Activation",
            "config": {
              "name": "F_1_3_3_Relu",
              "trainable": true,
              "dtype": "float32",
              "activation": "relu"
            },
            "name": "F_1_3_3_Relu",
            "inbound_nodes": [
              [
                [
                  "F_1_3_3",
                  0,
                  0,
                  {}
                ]
              ]
            ]
          },
          {
            "class_name": "Concatenate",
            "config": {
              "name": "RDB_Concat_1_3_3",
              "trainable": true,
              "dtype": "float32",
              "axis": 3
            },
            "name": "RDB_Concat_1_3_3",
            "inbound_nodes": [
              [
                [
                  "RDB_Concat_1_3_2",
                  0,
                  0,
                  {}
                ],
                [
                  "F_1_3_3_Relu",
                  0,
                  0,
                  {}
                ]
              ]
            ]
          },
          {
            "class_name": "Conv2D",
            "config": {
              "name": "F_1_3_4",
              "trainable": true,
              "dtype": "float32",
              "filters": 32,
              "kernel_size": [
                3,
                3
              ],
              "strides": [
                1,
                1
              ],
              "padding": "same",
              "data_format": "channels_last",
              "dilation_rate": [
                1,
                1
              ],
              "groups": 1,
              "activation": "linear",
              "use_bias": true,
              "kernel_initializer": {
                "class_name": "RandomUniform",
                "config": {
                  "minval": -0.05,
                  "maxval": 0.05,
                  "seed": null
                }
              },
              "bias_initializer": {
                "class_name": "Zeros",
                "config": {}
              },
              "kernel_regularizer": null,
              "bias_regularizer": null,
              "activity_regularizer": null,
              "kernel_constraint": null,
              "bias_constraint": null
            },
            "name": "F_1_3_4",
            "inbound_nodes": [
              [
                [
                  "RDB_Concat_1_3_3",
                  0,
                  0,
                  {}
                ]
              ]
            ]
          },
          {
            "class_name": "Activation",
            "config": {
              "name": "F_1_3_4_Relu",
              "trainable": true,
              "dtype": "float32",
              "activation": "relu"
            },
            "name": "F_1_3_4_Relu",
            "inbound_nodes": [
              [
                [
                  "F_1_3_4",
                  0,
                  0,
                  {}
                ]
              ]
            ]
          },
          {
            "class_name": "Concatenate",
            "config": {
              "name": "RDB_Concat_1_3_4",
              "trainable": true,
              "dtype": "float32",
              "axis": 3
            },
            "name": "RDB_Concat_1_3_4",
            "inbound_nodes": [
              [
                [
                  "RDB_Concat_1_3_3",
                  0,
                  0,
                  {}
                ],
                [
                  "F_1_3_4_Relu",
                  0,
                  0,
                  {}
                ]
              ]
            ]
          },
          {
            "class_name": "Conv2D",
            "config": {
              "name": "LFF_1_3",
              "trainable": true,
              "dtype": "float32",
              "filters": 32,
              "kernel_size": [
                3,
                3
              ],
              "strides": [
                1,
                1
              ],
              "padding": "same",
              "data_format": "channels_last",
              "dilation_rate": [
                1,
                1
              ],
              "groups": 1,
              "activation": "linear",
              "use_bias": true,
              "kernel_initializer": {
                "class_name": "RandomUniform",
                "config": {
                  "minval": -0.05,
                  "maxval": 0.05,
                  "seed": null
                }
              },
              "bias_initializer": {
                "class_name": "Zeros",
                "config": {}
              },
              "kernel_regularizer": null,
              "bias_regularizer": null,
              "activity_regularizer": null,
              "kernel_constraint": null,
              "bias_constraint": null
            },
            "name": "LFF_1_3",
            "inbound_nodes": [
              [
                [
                  "RDB_Concat_1_3_4",
                  0,
                  0,
                  {}
                ]
              ]
            ]
          },
          {
            "class_name": "MultiplyBeta",
            "config": {
              "name": "multiply_beta_727",
              "trainable": true,
              "dtype": "float32",
              "beta": 0.2
            },
            "name": "multiply_beta_727",
            "inbound_nodes": [
              [
                [
                  "LFF_1_3",
                  0,
                  0,
                  {}
                ]
              ]
            ]
          },
          {
            "class_name": "Add",
            "config": {
              "name": "LRL_1_3",
              "trainable": true,
              "dtype": "float32"
            },
            "name": "LRL_1_3",
            "inbound_nodes": [
              [
                [
                  "LRL_1_2",
                  0,
                  0,
                  {}
                ],
                [
                  "multiply_beta_727",
                  0,
                  0,
                  {}
                ]
              ]
            ]
          },
          {
            "class_name": "MultiplyBeta",
            "config": {
              "name": "multiply_beta_728",
              "trainable": true,
              "dtype": "float32",
              "beta": 0.2
            },
            "name": "multiply_beta_728",
            "inbound_nodes": [
              [
                [
                  "LRL_1_3",
                  0,
                  0,
                  {}
                ]
              ]
            ]
          },
          {
            "class_name": "Add",
            "config": {
              "name": "RRDB_1_out",
              "trainable": true,
              "dtype": "float32"
            },
            "name": "RRDB_1_out",
            "inbound_nodes": [
              [
                [
                  "Pre_blocks_conv",
                  0,
                  0,
                  {}
                ],
                [
                  "multiply_beta_728",
                  0,
                  0,
                  {}
                ]
              ]
            ]
          },
          {
            "class_name": "Conv2D",
            "config": {
              "name": "F_2_1_1",
              "trainable": true,
              "dtype": "float32",
              "filters": 32,
              "kernel_size": [
                3,
                3
              ],
              "strides": [
                1,
                1
              ],
              "padding": "same",
              "data_format": "channels_last",
              "dilation_rate": [
                1,
                1
              ],
              "groups": 1,
              "activation": "linear",
              "use_bias": true,
              "kernel_initializer": {
                "class_name": "RandomUniform",
                "config": {
                  "minval": -0.05,
                  "maxval": 0.05,
                  "seed": null
                }
              },
              "bias_initializer": {
                "class_name": "Zeros",
                "config": {}
              },
              "kernel_regularizer": null,
              "bias_regularizer": null,
              "activity_regularizer": null,
              "kernel_constraint": null,
              "bias_constraint": null
            },
            "name": "F_2_1_1",
            "inbound_nodes": [
              [
                [
                  "RRDB_1_out",
                  0,
                  0,
                  {}
                ]
              ]
            ]
          },
          {
            "class_name": "Activation",
            "config": {
              "name": "F_2_1_1_Relu",
              "trainable": true,
              "dtype": "float32",
              "activation": "relu"
            },
            "name": "F_2_1_1_Relu",
            "inbound_nodes": [
              [
                [
                  "F_2_1_1",
                  0,
                  0,
                  {}
                ]
              ]
            ]
          },
          {
            "class_name": "Concatenate",
            "config": {
              "name": "RDB_Concat_2_1_1",
              "trainable": true,
              "dtype": "float32",
              "axis": 3
            },
            "name": "RDB_Concat_2_1_1",
            "inbound_nodes": [
              [
                [
                  "RRDB_1_out",
                  0,
                  0,
                  {}
                ],
                [
                  "F_2_1_1_Relu",
                  0,
                  0,
                  {}
                ]
              ]
            ]
          },
          {
            "class_name": "Conv2D",
            "config": {
              "name": "F_2_1_2",
              "trainable": true,
              "dtype": "float32",
              "filters": 32,
              "kernel_size": [
                3,
                3
              ],
              "strides": [
                1,
                1
              ],
              "padding": "same",
              "data_format": "channels_last",
              "dilation_rate": [
                1,
                1
              ],
              "groups": 1,
              "activation": "linear",
              "use_bias": true,
              "kernel_initializer": {
                "class_name": "RandomUniform",
                "config": {
                  "minval": -0.05,
                  "maxval": 0.05,
                  "seed": null
                }
              },
              "bias_initializer": {
                "class_name": "Zeros",
                "config": {}
              },
              "kernel_regularizer": null,
              "bias_regularizer": null,
              "activity_regularizer": null,
              "kernel_constraint": null,
              "bias_constraint": null
            },
            "name": "F_2_1_2",
            "inbound_nodes": [
              [
                [
                  "RDB_Concat_2_1_1",
                  0,
                  0,
                  {}
                ]
              ]
            ]
          },
          {
            "class_name": "Activation",
            "config": {
              "name": "F_2_1_2_Relu",
              "trainable": true,
              "dtype": "float32",
              "activation": "relu"
            },
            "name": "F_2_1_2_Relu",
            "inbound_nodes": [
              [
                [
                  "F_2_1_2",
                  0,
                  0,
                  {}
                ]
              ]
            ]
          },
          {
            "class_name": "Concatenate",
            "config": {
              "name": "RDB_Concat_2_1_2",
              "trainable": true,
              "dtype": "float32",
              "axis": 3
            },
            "name": "RDB_Concat_2_1_2",
            "inbound_nodes": [
              [
                [
                  "RDB_Concat_2_1_1",
                  0,
                  0,
                  {}
                ],
                [
                  "F_2_1_2_Relu",
                  0,
                  0,
                  {}
                ]
              ]
            ]
          },
          {
            "class_name": "Conv2D",
            "config": {
              "name": "F_2_1_3",
              "trainable": true,
              "dtype": "float32",
              "filters": 32,
              "kernel_size": [
                3,
                3
              ],
              "strides": [
                1,
                1
              ],
              "padding": "same",
              "data_format": "channels_last",
              "dilation_rate": [
                1,
                1
              ],
              "groups": 1,
              "activation": "linear",
              "use_bias": true,
              "kernel_initializer": {
                "class_name": "RandomUniform",
                "config": {
                  "minval": -0.05,
                  "maxval": 0.05,
                  "seed": null
                }
              },
              "bias_initializer": {
                "class_name": "Zeros",
                "config": {}
              },
              "kernel_regularizer": null,
              "bias_regularizer": null,
              "activity_regularizer": null,
              "kernel_constraint": null,
              "bias_constraint": null
            },
            "name": "F_2_1_3",
            "inbound_nodes": [
              [
                [
                  "RDB_Concat_2_1_2",
                  0,
                  0,
                  {}
                ]
              ]
            ]
          },
          {
            "class_name": "Activation",
            "config": {
              "name": "F_2_1_3_Relu",
              "trainable": true,
              "dtype": "float32",
              "activation": "relu"
            },
            "name": "F_2_1_3_Relu",
            "inbound_nodes": [
              [
                [
                  "F_2_1_3",
                  0,
                  0,
                  {}
                ]
              ]
            ]
          },
          {
            "class_name": "Concatenate",
            "config": {
              "name": "RDB_Concat_2_1_3",
              "trainable": true,
              "dtype": "float32",
              "axis": 3
            },
            "name": "RDB_Concat_2_1_3",
            "inbound_nodes": [
              [
                [
                  "RDB_Concat_2_1_2",
                  0,
                  0,
                  {}
                ],
                [
                  "F_2_1_3_Relu",
                  0,
                  0,
                  {}
                ]
              ]
            ]
          },
          {
            "class_name": "Conv2D",
            "config": {
              "name": "F_2_1_4",
              "trainable": true,
              "dtype": "float32",
              "filters": 32,
              "kernel_size": [
                3,
                3
              ],
              "strides": [
                1,
                1
              ],
              "padding": "same",
              "data_format": "channels_last",
              "dilation_rate": [
                1,
                1
              ],
              "groups": 1,
              "activation": "linear",
              "use_bias": true,
              "kernel_initializer": {
                "class_name": "RandomUniform",
                "config": {
                  "minval": -0.05,
                  "maxval": 0.05,
                  "seed": null
                }
              },
              "bias_initializer": {
                "class_name": "Zeros",
                "config": {}
              },
              "kernel_regularizer": null,
              "bias_regularizer": null,
              "activity_regularizer": null,
              "kernel_constraint": null,
              "bias_constraint": null
            },
            "name": "F_2_1_4",
            "inbound_nodes": [
              [
                [
                  "RDB_Concat_2_1_3",
                  0,
                  0,
                  {}
                ]
              ]
            ]
          },
          {
            "class_name": "Activation",
            "config": {
              "name": "F_2_1_4_Relu",
              "trainable": true,
              "dtype": "float32",
              "activation": "relu"
            },
            "name": "F_2_1_4_Relu",
            "inbound_nodes": [
              [
                [
                  "F_2_1_4",
                  0,
                  0,
                  {}
                ]
              ]
            ]
          },
          {
            "class_name": "Concatenate",
            "config": {
              "name": "RDB_Concat_2_1_4",
              "trainable": true,
              "dtype": "float32",
              "axis": 3
            },
            "name": "RDB_Concat_2_1_4",
            "inbound_nodes": [
              [
                [
                  "RDB_Concat_2_1_3",
                  0,
                  0,
                  {}
                ],
                [
                  "F_2_1_4_Relu",
                  0,
                  0,
                  {}
                ]
              ]
            ]
          },
          {
            "class_name": "Conv2D",
            "config": {
              "name": "LFF_2_1",
              "trainable": true,
              "dtype": "float32",
              "filters": 32,
              "kernel_size": [
                3,
                3
              ],
              "strides": [
                1,
                1
              ],
              "padding": "same",
              "data_format": "channels_last",
              "dilation_rate": [
                1,
                1
              ],
              "groups": 1,
              "activation": "linear",
              "use_bias": true,
              "kernel_initializer": {
                "class_name": "RandomUniform",
                "config": {
                  "minval": -0.05,
                  "maxval": 0.05,
                  "seed": null
                }
              },
              "bias_initializer": {
                "class_name": "Zeros",
                "config": {}
              },
              "kernel_regularizer": null,
              "bias_regularizer": null,
              "activity_regularizer": null,
              "kernel_constraint": null,
              "bias_constraint": null
            },
            "name": "LFF_2_1",
            "inbound_nodes": [
              [
                [
                  "RDB_Concat_2_1_4",
                  0,
                  0,
                  {}
                ]
              ]
            ]
          },
          {
            "class_name": "MultiplyBeta",
            "config": {
              "name": "multiply_beta_729",
              "trainable": true,
              "dtype": "float32",
              "beta": 0.2
            },
            "name": "multiply_beta_729",
            "inbound_nodes": [
              [
                [
                  "LFF_2_1",
                  0,
                  0,
                  {}
                ]
              ]
            ]
          },
          {
            "class_name": "Add",
            "config": {
              "name": "LRL_2_1",
              "trainable": true,
              "dtype": "float32"
            },
            "name": "LRL_2_1",
            "inbound_nodes": [
              [
                [
                  "RRDB_1_out",
                  0,
                  0,
                  {}
                ],
                [
                  "multiply_beta_729",
                  0,
                  0,
                  {}
                ]
              ]
            ]
          },
          {
            "class_name": "Conv2D",
            "config": {
              "name": "F_2_2_1",
              "trainable": true,
              "dtype": "float32",
              "filters": 32,
              "kernel_size": [
                3,
                3
              ],
              "strides": [
                1,
                1
              ],
              "padding": "same",
              "data_format": "channels_last",
              "dilation_rate": [
                1,
                1
              ],
              "groups": 1,
              "activation": "linear",
              "use_bias": true,
              "kernel_initializer": {
                "class_name": "RandomUniform",
                "config": {
                  "minval": -0.05,
                  "maxval": 0.05,
                  "seed": null
                }
              },
              "bias_initializer": {
                "class_name": "Zeros",
                "config": {}
              },
              "kernel_regularizer": null,
              "bias_regularizer": null,
              "activity_regularizer": null,
              "kernel_constraint": null,
              "bias_constraint": null
            },
            "name": "F_2_2_1",
            "inbound_nodes": [
              [
                [
                  "LRL_2_1",
                  0,
                  0,
                  {}
                ]
              ]
            ]
          },
          {
            "class_name": "Activation",
            "config": {
              "name": "F_2_2_1_Relu",
              "trainable": true,
              "dtype": "float32",
              "activation": "relu"
            },
            "name": "F_2_2_1_Relu",
            "inbound_nodes": [
              [
                [
                  "F_2_2_1",
                  0,
                  0,
                  {}
                ]
              ]
            ]
          },
          {
            "class_name": "Concatenate",
            "config": {
              "name": "RDB_Concat_2_2_1",
              "trainable": true,
              "dtype": "float32",
              "axis": 3
            },
            "name": "RDB_Concat_2_2_1",
            "inbound_nodes": [
              [
                [
                  "LRL_2_1",
                  0,
                  0,
                  {}
                ],
                [
                  "F_2_2_1_Relu",
                  0,
                  0,
                  {}
                ]
              ]
            ]
          },
          {
            "class_name": "Conv2D",
            "config": {
              "name": "F_2_2_2",
              "trainable": true,
              "dtype": "float32",
              "filters": 32,
              "kernel_size": [
                3,
                3
              ],
              "strides": [
                1,
                1
              ],
              "padding": "same",
              "data_format": "channels_last",
              "dilation_rate": [
                1,
                1
              ],
              "groups": 1,
              "activation": "linear",
              "use_bias": true,
              "kernel_initializer": {
                "class_name": "RandomUniform",
                "config": {
                  "minval": -0.05,
                  "maxval": 0.05,
                  "seed": null
                }
              },
              "bias_initializer": {
                "class_name": "Zeros",
                "config": {}
              },
              "kernel_regularizer": null,
              "bias_regularizer": null,
              "activity_regularizer": null,
              "kernel_constraint": null,
              "bias_constraint": null
            },
            "name": "F_2_2_2",
            "inbound_nodes": [
              [
                [
                  "RDB_Concat_2_2_1",
                  0,
                  0,
                  {}
                ]
              ]
            ]
          },
          {
            "class_name": "Activation",
            "config": {
              "name": "F_2_2_2_Relu",
              "trainable": true,
              "dtype": "float32",
              "activation": "relu"
            },
            "name": "F_2_2_2_Relu",
            "inbound_nodes": [
              [
                [
                  "F_2_2_2",
                  0,
                  0,
                  {}
                ]
              ]
            ]
          },
          {
            "class_name": "Concatenate",
            "config": {
              "name": "RDB_Concat_2_2_2",
              "trainable": true,
              "dtype": "float32",
              "axis": 3
            },
            "name": "RDB_Concat_2_2_2",
            "inbound_nodes": [
              [
                [
                  "RDB_Concat_2_2_1",
                  0,
                  0,
                  {}
                ],
                [
                  "F_2_2_2_Relu",
                  0,
                  0,
                  {}
                ]
              ]
            ]
          },
          {
            "class_name": "Conv2D",
            "config": {
              "name": "F_2_2_3",
              "trainable": true,
              "dtype": "float32",
              "filters": 32,
              "kernel_size": [
                3,
                3
              ],
              "strides": [
                1,
                1
              ],
              "padding": "same",
              "data_format": "channels_last",
              "dilation_rate": [
                1,
                1
              ],
              "groups": 1,
              "activation": "linear",
              "use_bias": true,
              "kernel_initializer": {
                "class_name": "RandomUniform",
                "config": {
                  "minval": -0.05,
                  "maxval": 0.05,
                  "seed": null
                }
              },
              "bias_initializer": {
                "class_name": "Zeros",
                "config": {}
              },
              "kernel_regularizer": null,
              "bias_regularizer": null,
              "activity_regularizer": null,
              "kernel_constraint": null,
              "bias_constraint": null
            },
            "name": "F_2_2_3",
            "inbound_nodes": [
              [
                [
                  "RDB_Concat_2_2_2",
                  0,
                  0,
                  {}
                ]
              ]
            ]
          },
          {
            "class_name": "Activation",
            "config": {
              "name": "F_2_2_3_Relu",
              "trainable": true,
              "dtype": "float32",
              "activation": "relu"
            },
            "name": "F_2_2_3_Relu",
            "inbound_nodes": [
              [
                [
                  "F_2_2_3",
                  0,
                  0,
                  {}
                ]
              ]
            ]
          },
          {
            "class_name": "Concatenate",
            "config": {
              "name": "RDB_Concat_2_2_3",
              "trainable": true,
              "dtype": "float32",
              "axis": 3
            },
            "name": "RDB_Concat_2_2_3",
            "inbound_nodes": [
              [
                [
                  "RDB_Concat_2_2_2",
                  0,
                  0,
                  {}
                ],
                [
                  "F_2_2_3_Relu",
                  0,
                  0,
                  {}
                ]
              ]
            ]
          },
          {
            "class_name": "Conv2D",
            "config": {
              "name": "F_2_2_4",
              "trainable": true,
              "dtype": "float32",
              "filters": 32,
              "kernel_size": [
                3,
                3
              ],
              "strides": [
                1,
                1
              ],
              "padding": "same",
              "data_format": "channels_last",
              "dilation_rate": [
                1,
                1
              ],
              "groups": 1,
              "activation": "linear",
              "use_bias": true,
              "kernel_initializer": {
                "class_name": "RandomUniform",
                "config": {
                  "minval": -0.05,
                  "maxval": 0.05,
                  "seed": null
                }
              },
              "bias_initializer": {
                "class_name": "Zeros",
                "config": {}
              },
              "kernel_regularizer": null,
              "bias_regularizer": null,
              "activity_regularizer": null,
              "kernel_constraint": null,
              "bias_constraint": null
            },
            "name": "F_2_2_4",
            "inbound_nodes": [
              [
                [
                  "RDB_Concat_2_2_3",
                  0,
                  0,
                  {}
                ]
              ]
            ]
          },
          {
            "class_name": "Activation",
            "config": {
              "name": "F_2_2_4_Relu",
              "trainable": true,
              "dtype": "float32",
              "activation": "relu"
            },
            "name": "F_2_2_4_Relu",
            "inbound_nodes": [
              [
                [
                  "F_2_2_4",
                  0,
                  0,
                  {}
                ]
              ]
            ]
          },
          {
            "class_name": "Concatenate",
            "config": {
              "name": "RDB_Concat_2_2_4",
              "trainable": true,
              "dtype": "float32",
              "axis": 3
            },
            "name": "RDB_Concat_2_2_4",
            "inbound_nodes": [
              [
                [
                  "RDB_Concat_2_2_3",
                  0,
                  0,
                  {}
                ],
                [
                  "F_2_2_4_Relu",
                  0,
                  0,
                  {}
                ]
              ]
            ]
          },
          {
            "class_name": "Conv2D",
            "config": {
              "name": "LFF_2_2",
              "trainable": true,
              "dtype": "float32",
              "filters": 32,
              "kernel_size": [
                3,
                3
              ],
              "strides": [
                1,
                1
              ],
              "padding": "same",
              "data_format": "channels_last",
              "dilation_rate": [
                1,
                1
              ],
              "groups": 1,
              "activation": "linear",
              "use_bias": true,
              "kernel_initializer": {
                "class_name": "RandomUniform",
                "config": {
                  "minval": -0.05,
                  "maxval": 0.05,
                  "seed": null
                }
              },
              "bias_initializer": {
                "class_name": "Zeros",
                "config": {}
              },
              "kernel_regularizer": null,
              "bias_regularizer": null,
              "activity_regularizer": null,
              "kernel_constraint": null,
              "bias_constraint": null
            },
            "name": "LFF_2_2",
            "inbound_nodes": [
              [
                [
                  "RDB_Concat_2_2_4",
                  0,
                  0,
                  {}
                ]
              ]
            ]
          },
          {
            "class_name": "MultiplyBeta",
            "config": {
              "name": "multiply_beta_730",
              "trainable": true,
              "dtype": "float32",
              "beta": 0.2
            },
            "name": "multiply_beta_730",
            "inbound_nodes": [
              [
                [
                  "LFF_2_2",
                  0,
                  0,
                  {}
                ]
              ]
            ]
          },
          {
            "class_name": "Add",
            "config": {
              "name": "LRL_2_2",
              "trainable": true,
              "dtype": "float32"
            },
            "name": "LRL_2_2",
            "inbound_nodes": [
              [
                [
                  "LRL_2_1",
                  0,
                  0,
                  {}
                ],
                [
                  "multiply_beta_730",
                  0,
                  0,
                  {}
                ]
              ]
            ]
          },
          {
            "class_name": "Conv2D",
            "config": {
              "name": "F_2_3_1",
              "trainable": true,
              "dtype": "float32",
              "filters": 32,
              "kernel_size": [
                3,
                3
              ],
              "strides": [
                1,
                1
              ],
              "padding": "same",
              "data_format": "channels_last",
              "dilation_rate": [
                1,
                1
              ],
              "groups": 1,
              "activation": "linear",
              "use_bias": true,
              "kernel_initializer": {
                "class_name": "RandomUniform",
                "config": {
                  "minval": -0.05,
                  "maxval": 0.05,
                  "seed": null
                }
              },
              "bias_initializer": {
                "class_name": "Zeros",
                "config": {}
              },
              "kernel_regularizer": null,
              "bias_regularizer": null,
              "activity_regularizer": null,
              "kernel_constraint": null,
              "bias_constraint": null
            },
            "name": "F_2_3_1",
            "inbound_nodes": [
              [
                [
                  "LRL_2_2",
                  0,
                  0,
                  {}
                ]
              ]
            ]
          },
          {
            "class_name": "Activation",
            "config": {
              "name": "F_2_3_1_Relu",
              "trainable": true,
              "dtype": "float32",
              "activation": "relu"
            },
            "name": "F_2_3_1_Relu",
            "inbound_nodes": [
              [
                [
                  "F_2_3_1",
                  0,
                  0,
                  {}
                ]
              ]
            ]
          },
          {
            "class_name": "Concatenate",
            "config": {
              "name": "RDB_Concat_2_3_1",
              "trainable": true,
              "dtype": "float32",
              "axis": 3
            },
            "name": "RDB_Concat_2_3_1",
            "inbound_nodes": [
              [
                [
                  "LRL_2_2",
                  0,
                  0,
                  {}
                ],
                [
                  "F_2_3_1_Relu",
                  0,
                  0,
                  {}
                ]
              ]
            ]
          },
          {
            "class_name": "Conv2D",
            "config": {
              "name": "F_2_3_2",
              "trainable": true,
              "dtype": "float32",
              "filters": 32,
              "kernel_size": [
                3,
                3
              ],
              "strides": [
                1,
                1
              ],
              "padding": "same",
              "data_format": "channels_last",
              "dilation_rate": [
                1,
                1
              ],
              "groups": 1,
              "activation": "linear",
              "use_bias": true,
              "kernel_initializer": {
                "class_name": "RandomUniform",
                "config": {
                  "minval": -0.05,
                  "maxval": 0.05,
                  "seed": null
                }
              },
              "bias_initializer": {
                "class_name": "Zeros",
                "config": {}
              },
              "kernel_regularizer": null,
              "bias_regularizer": null,
              "activity_regularizer": null,
              "kernel_constraint": null,
              "bias_constraint": null
            },
            "name": "F_2_3_2",
            "inbound_nodes": [
              [
                [
                  "RDB_Concat_2_3_1",
                  0,
                  0,
                  {}
                ]
              ]
            ]
          },
          {
            "class_name": "Activation",
            "config": {
              "name": "F_2_3_2_Relu",
              "trainable": true,
              "dtype": "float32",
              "activation": "relu"
            },
            "name": "F_2_3_2_Relu",
            "inbound_nodes": [
              [
                [
                  "F_2_3_2",
                  0,
                  0,
                  {}
                ]
              ]
            ]
          },
          {
            "class_name": "Concatenate",
            "config": {
              "name": "RDB_Concat_2_3_2",
              "trainable": true,
              "dtype": "float32",
              "axis": 3
            },
            "name": "RDB_Concat_2_3_2",
            "inbound_nodes": [
              [
                [
                  "RDB_Concat_2_3_1",
                  0,
                  0,
                  {}
                ],
                [
                  "F_2_3_2_Relu",
                  0,
                  0,
                  {}
                ]
              ]
            ]
          },
          {
            "class_name": "Conv2D",
            "config": {
              "name": "F_2_3_3",
              "trainable": true,
              "dtype": "float32",
              "filters": 32,
              "kernel_size": [
                3,
                3
              ],
              "strides": [
                1,
                1
              ],
              "padding": "same",
              "data_format": "channels_last",
              "dilation_rate": [
                1,
                1
              ],
              "groups": 1,
              "activation": "linear",
              "use_bias": true,
              "kernel_initializer": {
                "class_name": "RandomUniform",
                "config": {
                  "minval": -0.05,
                  "maxval": 0.05,
                  "seed": null
                }
              },
              "bias_initializer": {
                "class_name": "Zeros",
                "config": {}
              },
              "kernel_regularizer": null,
              "bias_regularizer": null,
              "activity_regularizer": null,
              "kernel_constraint": null,
              "bias_constraint": null
            },
            "name": "F_2_3_3",
            "inbound_nodes": [
              [
                [
                  "RDB_Concat_2_3_2",
                  0,
                  0,
                  {}
                ]
              ]
            ]
          },
          {
            "class_name": "Activation",
            "config": {
              "name": "F_2_3_3_Relu",
              "trainable": true,
              "dtype": "float32",
              "activation": "relu"
            },
            "name": "F_2_3_3_Relu",
            "inbound_nodes": [
              [
                [
                  "F_2_3_3",
                  0,
                  0,
                  {}
                ]
              ]
            ]
          },
          {
            "class_name": "Concatenate",
            "config": {
              "name": "RDB_Concat_2_3_3",
              "trainable": true,
              "dtype": "float32",
              "axis": 3
            },
            "name": "RDB_Concat_2_3_3",
            "inbound_nodes": [
              [
                [
                  "RDB_Concat_2_3_2",
                  0,
                  0,
                  {}
                ],
                [
                  "F_2_3_3_Relu",
                  0,
                  0,
                  {}
                ]
              ]
            ]
          },
          {
            "class_name": "Conv2D",
            "config": {
              "name": "F_2_3_4",
              "trainable": true,
              "dtype": "float32",
              "filters": 32,
              "kernel_size": [
                3,
                3
              ],
              "strides": [
                1,
                1
              ],
              "padding": "same",
              "data_format": "channels_last",
              "dilation_rate": [
                1,
                1
              ],
              "groups": 1,
              "activation": "linear",
              "use_bias": true,
              "kernel_initializer": {
                "class_name": "RandomUniform",
                "config": {
                  "minval": -0.05,
                  "maxval": 0.05,
                  "seed": null
                }
              },
              "bias_initializer": {
                "class_name": "Zeros",
                "config": {}
              },
              "kernel_regularizer": null,
              "bias_regularizer": null,
              "activity_regularizer": null,
              "kernel_constraint": null,
              "bias_constraint": null
            },
            "name": "F_2_3_4",
            "inbound_nodes": [
              [
                [
                  "RDB_Concat_2_3_3",
                  0,
                  0,
                  {}
                ]
              ]
            ]
          },
          {
            "class_name": "Activation",
            "config": {
              "name": "F_2_3_4_Relu",
              "trainable": true,
              "dtype": "float32",
              "activation": "relu"
            },
            "name": "F_2_3_4_Relu",
            "inbound_nodes": [
              [
                [
                  "F_2_3_4",
                  0,
                  0,
                  {}
                ]
              ]
            ]
          },
          {
            "class_name": "Concatenate",
            "config": {
              "name": "RDB_Concat_2_3_4",
              "trainable": true,
              "dtype": "float32",
              "axis": 3
            },
            "name": "RDB_Concat_2_3_4",
            "inbound_nodes": [
              [
                [
                  "RDB_Concat_2_3_3",
                  0,
                  0,
                  {}
                ],
                [
                  "F_2_3_4_Relu",
                  0,
                  0,
                  {}
                ]
              ]
            ]
          },
          {
            "class_name": "Conv2D",
            "config": {
              "name": "LFF_2_3",
              "trainable": true,
              "dtype": "float32",
              "filters": 32,
              "kernel_size": [
                3,
                3
              ],
              "strides": [
                1,
                1
              ],
              "padding": "same",
              "data_format": "channels_last",
              "dilation_rate": [
                1,
                1
              ],
              "groups": 1,
              "activation": "linear",
              "use_bias": true,
              "kernel_initializer": {
                "class_name": "RandomUniform",
                "config": {
                  "minval": -0.05,
                  "maxval": 0.05,
                  "seed": null
                }
              },
              "bias_initializer": {
                "class_name": "Zeros",
                "config": {}
              },
              "kernel_regularizer": null,
              "bias_regularizer": null,
              "activity_regularizer": null,
              "kernel_constraint": null,
              "bias_constraint": null
            },
            "name": "LFF_2_3",
            "inbound_nodes": [
              [
                [
                  "RDB_Concat_2_3_4",
                  0,
                  0,
                  {}
                ]
              ]
            ]
          },
          {
            "class_name": "MultiplyBeta",
            "config": {
              "name": "multiply_beta_731",
              "trainable": true,
              "dtype": "float32",
              "beta": 0.2
            },
            "name": "multiply_beta_731",
            "inbound_nodes": [
              [
                [
                  "LFF_2_3",
                  0,
                  0,
                  {}
                ]
              ]
            ]
          },
          {
            "class_name": "Add",
            "config": {
              "name": "LRL_2_3",
              "trainable": true,
              "dtype": "float32"
            },
            "name": "LRL_2_3",
            "inbound_nodes": [
              [
                [
                  "LRL_2_2",
                  0,
                  0,
                  {}
                ],
                [
                  "multiply_beta_731",
                  0,
                  0,
                  {}
                ]
              ]
            ]
          },
          {
            "class_name": "MultiplyBeta",
            "config": {
              "name": "multiply_beta_732",
              "trainable": true,
              "dtype": "float32",
              "beta": 0.2
            },
            "name": "multiply_beta_732",
            "inbound_nodes": [
              [
                [
                  "LRL_2_3",
                  0,
                  0,
                  {}
                ]
              ]
            ]
          },
          {
            "class_name": "Add",
            "config": {
              "name": "RRDB_2_out",
              "trainable": true,
              "dtype": "float32"
            },
            "name": "RRDB_2_out",
            "inbound_nodes": [
              [
                [
                  "RRDB_1_out",
                  0,
                  0,
                  {}
                ],
                [
                  "multiply_beta_732",
                  0,
                  0,
                  {}
                ]
              ]
            ]
          },
          {
            "class_name": "Conv2D",
            "config": {
              "name": "F_3_1_1",
              "trainable": true,
              "dtype": "float32",
              "filters": 32,
              "kernel_size": [
                3,
                3
              ],
              "strides": [
                1,
                1
              ],
              "padding": "same",
              "data_format": "channels_last",
              "dilation_rate": [
                1,
                1
              ],
              "groups": 1,
              "activation": "linear",
              "use_bias": true,
              "kernel_initializer": {
                "class_name": "RandomUniform",
                "config": {
                  "minval": -0.05,
                  "maxval": 0.05,
                  "seed": null
                }
              },
              "bias_initializer": {
                "class_name": "Zeros",
                "config": {}
              },
              "kernel_regularizer": null,
              "bias_regularizer": null,
              "activity_regularizer": null,
              "kernel_constraint": null,
              "bias_constraint": null
            },
            "name": "F_3_1_1",
            "inbound_nodes": [
              [
                [
                  "RRDB_2_out",
                  0,
                  0,
                  {}
                ]
              ]
            ]
          },
          {
            "class_name": "Activation",
            "config": {
              "name": "F_3_1_1_Relu",
              "trainable": true,
              "dtype": "float32",
              "activation": "relu"
            },
            "name": "F_3_1_1_Relu",
            "inbound_nodes": [
              [
                [
                  "F_3_1_1",
                  0,
                  0,
                  {}
                ]
              ]
            ]
          },
          {
            "class_name": "Concatenate",
            "config": {
              "name": "RDB_Concat_3_1_1",
              "trainable": true,
              "dtype": "float32",
              "axis": 3
            },
            "name": "RDB_Concat_3_1_1",
            "inbound_nodes": [
              [
                [
                  "RRDB_2_out",
                  0,
                  0,
                  {}
                ],
                [
                  "F_3_1_1_Relu",
                  0,
                  0,
                  {}
                ]
              ]
            ]
          },
          {
            "class_name": "Conv2D",
            "config": {
              "name": "F_3_1_2",
              "trainable": true,
              "dtype": "float32",
              "filters": 32,
              "kernel_size": [
                3,
                3
              ],
              "strides": [
                1,
                1
              ],
              "padding": "same",
              "data_format": "channels_last",
              "dilation_rate": [
                1,
                1
              ],
              "groups": 1,
              "activation": "linear",
              "use_bias": true,
              "kernel_initializer": {
                "class_name": "RandomUniform",
                "config": {
                  "minval": -0.05,
                  "maxval": 0.05,
                  "seed": null
                }
              },
              "bias_initializer": {
                "class_name": "Zeros",
                "config": {}
              },
              "kernel_regularizer": null,
              "bias_regularizer": null,
              "activity_regularizer": null,
              "kernel_constraint": null,
              "bias_constraint": null
            },
            "name": "F_3_1_2",
            "inbound_nodes": [
              [
                [
                  "RDB_Concat_3_1_1",
                  0,
                  0,
                  {}
                ]
              ]
            ]
          },
          {
            "class_name": "Activation",
            "config": {
              "name": "F_3_1_2_Relu",
              "trainable": true,
              "dtype": "float32",
              "activation": "relu"
            },
            "name": "F_3_1_2_Relu",
            "inbound_nodes": [
              [
                [
                  "F_3_1_2",
                  0,
                  0,
                  {}
                ]
              ]
            ]
          },
          {
            "class_name": "Concatenate",
            "config": {
              "name": "RDB_Concat_3_1_2",
              "trainable": true,
              "dtype": "float32",
              "axis": 3
            },
            "name": "RDB_Concat_3_1_2",
            "inbound_nodes": [
              [
                [
                  "RDB_Concat_3_1_1",
                  0,
                  0,
                  {}
                ],
                [
                  "F_3_1_2_Relu",
                  0,
                  0,
                  {}
                ]
              ]
            ]
          },
          {
            "class_name": "Conv2D",
            "config": {
              "name": "F_3_1_3",
              "trainable": true,
              "dtype": "float32",
              "filters": 32,
              "kernel_size": [
                3,
                3
              ],
              "strides": [
                1,
                1
              ],
              "padding": "same",
              "data_format": "channels_last",
              "dilation_rate": [
                1,
                1
              ],
              "groups": 1,
              "activation": "linear",
              "use_bias": true,
              "kernel_initializer": {
                "class_name": "RandomUniform",
                "config": {
                  "minval": -0.05,
                  "maxval": 0.05,
                  "seed": null
                }
              },
              "bias_initializer": {
                "class_name": "Zeros",
                "config": {}
              },
              "kernel_regularizer": null,
              "bias_regularizer": null,
              "activity_regularizer": null,
              "kernel_constraint": null,
              "bias_constraint": null
            },
            "name": "F_3_1_3",
            "inbound_nodes": [
              [
                [
                  "RDB_Concat_3_1_2",
                  0,
                  0,
                  {}
                ]
              ]
            ]
          },
          {
            "class_name": "Activation",
            "config": {
              "name": "F_3_1_3_Relu",
              "trainable": true,
              "dtype": "float32",
              "activation": "relu"
            },
            "name": "F_3_1_3_Relu",
            "inbound_nodes": [
              [
                [
                  "F_3_1_3",
                  0,
                  0,
                  {}
                ]
              ]
            ]
          },
          {
            "class_name": "Concatenate",
            "config": {
              "name": "RDB_Concat_3_1_3",
              "trainable": true,
              "dtype": "float32",
              "axis": 3
            },
            "name": "RDB_Concat_3_1_3",
            "inbound_nodes": [
              [
                [
                  "RDB_Concat_3_1_2",
                  0,
                  0,
                  {}
                ],
                [
                  "F_3_1_3_Relu",
                  0,
                  0,
                  {}
                ]
              ]
            ]
          },
          {
            "class_name": "Conv2D",
            "config": {
              "name": "F_3_1_4",
              "trainable": true,
              "dtype": "float32",
              "filters": 32,
              "kernel_size": [
                3,
                3
              ],
              "strides": [
                1,
                1
              ],
              "padding": "same",
              "data_format": "channels_last",
              "dilation_rate": [
                1,
                1
              ],
              "groups": 1,
              "activation": "linear",
              "use_bias": true,
              "kernel_initializer": {
                "class_name": "RandomUniform",
                "config": {
                  "minval": -0.05,
                  "maxval": 0.05,
                  "seed": null
                }
              },
              "bias_initializer": {
                "class_name": "Zeros",
                "config": {}
              },
              "kernel_regularizer": null,
              "bias_regularizer": null,
              "activity_regularizer": null,
              "kernel_constraint": null,
              "bias_constraint": null
            },
            "name": "F_3_1_4",
            "inbound_nodes": [
              [
                [
                  "RDB_Concat_3_1_3",
                  0,
                  0,
                  {}
                ]
              ]
            ]
          },
          {
            "class_name": "Activation",
            "config": {
              "name": "F_3_1_4_Relu",
              "trainable": true,
              "dtype": "float32",
              "activation": "relu"
            },
            "name": "F_3_1_4_Relu",
            "inbound_nodes": [
              [
                [
                  "F_3_1_4",
                  0,
                  0,
                  {}
                ]
              ]
            ]
          },
          {
            "class_name": "Concatenate",
            "config": {
              "name": "RDB_Concat_3_1_4",
              "trainable": true,
              "dtype": "float32",
              "axis": 3
            },
            "name": "RDB_Concat_3_1_4",
            "inbound_nodes": [
              [
                [
                  "RDB_Concat_3_1_3",
                  0,
                  0,
                  {}
                ],
                [
                  "F_3_1_4_Relu",
                  0,
                  0,
                  {}
                ]
              ]
            ]
          },
          {
            "class_name": "Conv2D",
            "config": {
              "name": "LFF_3_1",
              "trainable": true,
              "dtype": "float32",
              "filters": 32,
              "kernel_size": [
                3,
                3
              ],
              "strides": [
                1,
                1
              ],
              "padding": "same",
              "data_format": "channels_last",
              "dilation_rate": [
                1,
                1
              ],
              "groups": 1,
              "activation": "linear",
              "use_bias": true,
              "kernel_initializer": {
                "class_name": "RandomUniform",
                "config": {
                  "minval": -0.05,
                  "maxval": 0.05,
                  "seed": null
                }
              },
              "bias_initializer": {
                "class_name": "Zeros",
                "config": {}
              },
              "kernel_regularizer": null,
              "bias_regularizer": null,
              "activity_regularizer": null,
              "kernel_constraint": null,
              "bias_constraint": null
            },
            "name": "LFF_3_1",
            "inbound_nodes": [
              [
                [
                  "RDB_Concat_3_1_4",
                  0,
                  0,
                  {}
                ]
              ]
            ]
          },
          {
            "class_name": "MultiplyBeta",
            "config": {
              "name": "multiply_beta_733",
              "trainable": true,
              "dtype": "float32",
              "beta": 0.2
            },
            "name": "multiply_beta_733",
            "inbound_nodes": [
              [
                [
                  "LFF_3_1",
                  0,
                  0,
                  {}
                ]
              ]
            ]
          },
          {
            "class_name": "Add",
            "config": {
              "name": "LRL_3_1",
              "trainable": true,
              "dtype": "float32"
            },
            "name": "LRL_3_1",
            "inbound_nodes": [
              [
                [
                  "RRDB_2_out",
                  0,
                  0,
                  {}
                ],
                [
                  "multiply_beta_733",
                  0,
                  0,
                  {}
                ]
              ]
            ]
          },
          {
            "class_name": "Conv2D",
            "config": {
              "name": "F_3_2_1",
              "trainable": true,
              "dtype": "float32",
              "filters": 32,
              "kernel_size": [
                3,
                3
              ],
              "strides": [
                1,
                1
              ],
              "padding": "same",
              "data_format": "channels_last",
              "dilation_rate": [
                1,
                1
              ],
              "groups": 1,
              "activation": "linear",
              "use_bias": true,
              "kernel_initializer": {
                "class_name": "RandomUniform",
                "config": {
                  "minval": -0.05,
                  "maxval": 0.05,
                  "seed": null
                }
              },
              "bias_initializer": {
                "class_name": "Zeros",
                "config": {}
              },
              "kernel_regularizer": null,
              "bias_regularizer": null,
              "activity_regularizer": null,
              "kernel_constraint": null,
              "bias_constraint": null
            },
            "name": "F_3_2_1",
            "inbound_nodes": [
              [
                [
                  "LRL_3_1",
                  0,
                  0,
                  {}
                ]
              ]
            ]
          },
          {
            "class_name": "Activation",
            "config": {
              "name": "F_3_2_1_Relu",
              "trainable": true,
              "dtype": "float32",
              "activation": "relu"
            },
            "name": "F_3_2_1_Relu",
            "inbound_nodes": [
              [
                [
                  "F_3_2_1",
                  0,
                  0,
                  {}
                ]
              ]
            ]
          },
          {
            "class_name": "Concatenate",
            "config": {
              "name": "RDB_Concat_3_2_1",
              "trainable": true,
              "dtype": "float32",
              "axis": 3
            },
            "name": "RDB_Concat_3_2_1",
            "inbound_nodes": [
              [
                [
                  "LRL_3_1",
                  0,
                  0,
                  {}
                ],
                [
                  "F_3_2_1_Relu",
                  0,
                  0,
                  {}
                ]
              ]
            ]
          },
          {
            "class_name": "Conv2D",
            "config": {
              "name": "F_3_2_2",
              "trainable": true,
              "dtype": "float32",
              "filters": 32,
              "kernel_size": [
                3,
                3
              ],
              "strides": [
                1,
                1
              ],
              "padding": "same",
              "data_format": "channels_last",
              "dilation_rate": [
                1,
                1
              ],
              "groups": 1,
              "activation": "linear",
              "use_bias": true,
              "kernel_initializer": {
                "class_name": "RandomUniform",
                "config": {
                  "minval": -0.05,
                  "maxval": 0.05,
                  "seed": null
                }
              },
              "bias_initializer": {
                "class_name": "Zeros",
                "config": {}
              },
              "kernel_regularizer": null,
              "bias_regularizer": null,
              "activity_regularizer": null,
              "kernel_constraint": null,
              "bias_constraint": null
            },
            "name": "F_3_2_2",
            "inbound_nodes": [
              [
                [
                  "RDB_Concat_3_2_1",
                  0,
                  0,
                  {}
                ]
              ]
            ]
          },
          {
            "class_name": "Activation",
            "config": {
              "name": "F_3_2_2_Relu",
              "trainable": true,
              "dtype": "float32",
              "activation": "relu"
            },
            "name": "F_3_2_2_Relu",
            "inbound_nodes": [
              [
                [
                  "F_3_2_2",
                  0,
                  0,
                  {}
                ]
              ]
            ]
          },
          {
            "class_name": "Concatenate",
            "config": {
              "name": "RDB_Concat_3_2_2",
              "trainable": true,
              "dtype": "float32",
              "axis": 3
            },
            "name": "RDB_Concat_3_2_2",
            "inbound_nodes": [
              [
                [
                  "RDB_Concat_3_2_1",
                  0,
                  0,
                  {}
                ],
                [
                  "F_3_2_2_Relu",
                  0,
                  0,
                  {}
                ]
              ]
            ]
          },
          {
            "class_name": "Conv2D",
            "config": {
              "name": "F_3_2_3",
              "trainable": true,
              "dtype": "float32",
              "filters": 32,
              "kernel_size": [
                3,
                3
              ],
              "strides": [
                1,
                1
              ],
              "padding": "same",
              "data_format": "channels_last",
              "dilation_rate": [
                1,
                1
              ],
              "groups": 1,
              "activation": "linear",
              "use_bias": true,
              "kernel_initializer": {
                "class_name": "RandomUniform",
                "config": {
                  "minval": -0.05,
                  "maxval": 0.05,
                  "seed": null
                }
              },
              "bias_initializer": {
                "class_name": "Zeros",
                "config": {}
              },
              "kernel_regularizer": null,
              "bias_regularizer": null,
              "activity_regularizer": null,
              "kernel_constraint": null,
              "bias_constraint": null
            },
            "name": "F_3_2_3",
            "inbound_nodes": [
              [
                [
                  "RDB_Concat_3_2_2",
                  0,
                  0,
                  {}
                ]
              ]
            ]
          },
          {
            "class_name": "Activation",
            "config": {
              "name": "F_3_2_3_Relu",
              "trainable": true,
              "dtype": "float32",
              "activation": "relu"
            },
            "name": "F_3_2_3_Relu",
            "inbound_nodes": [
              [
                [
                  "F_3_2_3",
                  0,
                  0,
                  {}
                ]
              ]
            ]
          },
          {
            "class_name": "Concatenate",
            "config": {
              "name": "RDB_Concat_3_2_3",
              "trainable": true,
              "dtype": "float32",
              "axis": 3
            },
            "name": "RDB_Concat_3_2_3",
            "inbound_nodes": [
              [
                [
                  "RDB_Concat_3_2_2",
                  0,
                  0,
                  {}
                ],
                [
                  "F_3_2_3_Relu",
                  0,
                  0,
                  {}
                ]
              ]
            ]
          },
          {
            "class_name": "Conv2D",
            "config": {
              "name": "F_3_2_4",
              "trainable": true,
              "dtype": "float32",
              "filters": 32,
              "kernel_size": [
                3,
                3
              ],
              "strides": [
                1,
                1
              ],
              "padding": "same",
              "data_format": "channels_last",
              "dilation_rate": [
                1,
                1
              ],
              "groups": 1,
              "activation": "linear",
              "use_bias": true,
              "kernel_initializer": {
                "class_name": "RandomUniform",
                "config": {
                  "minval": -0.05,
                  "maxval": 0.05,
                  "seed": null
                }
              },
              "bias_initializer": {
                "class_name": "Zeros",
                "config": {}
              },
              "kernel_regularizer": null,
              "bias_regularizer": null,
              "activity_regularizer": null,
              "kernel_constraint": null,
              "bias_constraint": null
            },
            "name": "F_3_2_4",
            "inbound_nodes": [
              [
                [
                  "RDB_Concat_3_2_3",
                  0,
                  0,
                  {}
                ]
              ]
            ]
          },
          {
            "class_name": "Activation",
            "config": {
              "name": "F_3_2_4_Relu",
              "trainable": true,
              "dtype": "float32",
              "activation": "relu"
            },
            "name": "F_3_2_4_Relu",
            "inbound_nodes": [
              [
                [
                  "F_3_2_4",
                  0,
                  0,
                  {}
                ]
              ]
            ]
          },
          {
            "class_name": "Concatenate",
            "config": {
              "name": "RDB_Concat_3_2_4",
              "trainable": true,
              "dtype": "float32",
              "axis": 3
            },
            "name": "RDB_Concat_3_2_4",
            "inbound_nodes": [
              [
                [
                  "RDB_Concat_3_2_3",
                  0,
                  0,
                  {}
                ],
                [
                  "F_3_2_4_Relu",
                  0,
                  0,
                  {}
                ]
              ]
            ]
          },
          {
            "class_name": "Conv2D",
            "config": {
              "name": "LFF_3_2",
              "trainable": true,
              "dtype": "float32",
              "filters": 32,
              "kernel_size": [
                3,
                3
              ],
              "strides": [
                1,
                1
              ],
              "padding": "same",
              "data_format": "channels_last",
              "dilation_rate": [
                1,
                1
              ],
              "groups": 1,
              "activation": "linear",
              "use_bias": true,
              "kernel_initializer": {
                "class_name": "RandomUniform",
                "config": {
                  "minval": -0.05,
                  "maxval": 0.05,
                  "seed": null
                }
              },
              "bias_initializer": {
                "class_name": "Zeros",
                "config": {}
              },
              "kernel_regularizer": null,
              "bias_regularizer": null,
              "activity_regularizer": null,
              "kernel_constraint": null,
              "bias_constraint": null
            },
            "name": "LFF_3_2",
            "inbound_nodes": [
              [
                [
                  "RDB_Concat_3_2_4",
                  0,
                  0,
                  {}
                ]
              ]
            ]
          },
          {
            "class_name": "MultiplyBeta",
            "config": {
              "name": "multiply_beta_734",
              "trainable": true,
              "dtype": "float32",
              "beta": 0.2
            },
            "name": "multiply_beta_734",
            "inbound_nodes": [
              [
                [
                  "LFF_3_2",
                  0,
                  0,
                  {}
                ]
              ]
            ]
          },
          {
            "class_name": "Add",
            "config": {
              "name": "LRL_3_2",
              "trainable": true,
              "dtype": "float32"
            },
            "name": "LRL_3_2",
            "inbound_nodes": [
              [
                [
                  "LRL_3_1",
                  0,
                  0,
                  {}
                ],
                [
                  "multiply_beta_734",
                  0,
                  0,
                  {}
                ]
              ]
            ]
          },
          {
            "class_name": "Conv2D",
            "config": {
              "name": "F_3_3_1",
              "trainable": true,
              "dtype": "float32",
              "filters": 32,
              "kernel_size": [
                3,
                3
              ],
              "strides": [
                1,
                1
              ],
              "padding": "same",
              "data_format": "channels_last",
              "dilation_rate": [
                1,
                1
              ],
              "groups": 1,
              "activation": "linear",
              "use_bias": true,
              "kernel_initializer": {
                "class_name": "RandomUniform",
                "config": {
                  "minval": -0.05,
                  "maxval": 0.05,
                  "seed": null
                }
              },
              "bias_initializer": {
                "class_name": "Zeros",
                "config": {}
              },
              "kernel_regularizer": null,
              "bias_regularizer": null,
              "activity_regularizer": null,
              "kernel_constraint": null,
              "bias_constraint": null
            },
            "name": "F_3_3_1",
            "inbound_nodes": [
              [
                [
                  "LRL_3_2",
                  0,
                  0,
                  {}
                ]
              ]
            ]
          },
          {
            "class_name": "Activation",
            "config": {
              "name": "F_3_3_1_Relu",
              "trainable": true,
              "dtype": "float32",
              "activation": "relu"
            },
            "name": "F_3_3_1_Relu",
            "inbound_nodes": [
              [
                [
                  "F_3_3_1",
                  0,
                  0,
                  {}
                ]
              ]
            ]
          },
          {
            "class_name": "Concatenate",
            "config": {
              "name": "RDB_Concat_3_3_1",
              "trainable": true,
              "dtype": "float32",
              "axis": 3
            },
            "name": "RDB_Concat_3_3_1",
            "inbound_nodes": [
              [
                [
                  "LRL_3_2",
                  0,
                  0,
                  {}
                ],
                [
                  "F_3_3_1_Relu",
                  0,
                  0,
                  {}
                ]
              ]
            ]
          },
          {
            "class_name": "Conv2D",
            "config": {
              "name": "F_3_3_2",
              "trainable": true,
              "dtype": "float32",
              "filters": 32,
              "kernel_size": [
                3,
                3
              ],
              "strides": [
                1,
                1
              ],
              "padding": "same",
              "data_format": "channels_last",
              "dilation_rate": [
                1,
                1
              ],
              "groups": 1,
              "activation": "linear",
              "use_bias": true,
              "kernel_initializer": {
                "class_name": "RandomUniform",
                "config": {
                  "minval": -0.05,
                  "maxval": 0.05,
                  "seed": null
                }
              },
              "bias_initializer": {
                "class_name": "Zeros",
                "config": {}
              },
              "kernel_regularizer": null,
              "bias_regularizer": null,
              "activity_regularizer": null,
              "kernel_constraint": null,
              "bias_constraint": null
            },
            "name": "F_3_3_2",
            "inbound_nodes": [
              [
                [
                  "RDB_Concat_3_3_1",
                  0,
                  0,
                  {}
                ]
              ]
            ]
          },
          {
            "class_name": "Activation",
            "config": {
              "name": "F_3_3_2_Relu",
              "trainable": true,
              "dtype": "float32",
              "activation": "relu"
            },
            "name": "F_3_3_2_Relu",
            "inbound_nodes": [
              [
                [
                  "F_3_3_2",
                  0,
                  0,
                  {}
                ]
              ]
            ]
          },
          {
            "class_name": "Concatenate",
            "config": {
              "name": "RDB_Concat_3_3_2",
              "trainable": true,
              "dtype": "float32",
              "axis": 3
            },
            "name": "RDB_Concat_3_3_2",
            "inbound_nodes": [
              [
                [
                  "RDB_Concat_3_3_1",
                  0,
                  0,
                  {}
                ],
                [
                  "F_3_3_2_Relu",
                  0,
                  0,
                  {}
                ]
              ]
            ]
          },
          {
            "class_name": "Conv2D",
            "config": {
              "name": "F_3_3_3",
              "trainable": true,
              "dtype": "float32",
              "filters": 32,
              "kernel_size": [
                3,
                3
              ],
              "strides": [
                1,
                1
              ],
              "padding": "same",
              "data_format": "channels_last",
              "dilation_rate": [
                1,
                1
              ],
              "groups": 1,
              "activation": "linear",
              "use_bias": true,
              "kernel_initializer": {
                "class_name": "RandomUniform",
                "config": {
                  "minval": -0.05,
                  "maxval": 0.05,
                  "seed": null
                }
              },
              "bias_initializer": {
                "class_name": "Zeros",
                "config": {}
              },
              "kernel_regularizer": null,
              "bias_regularizer": null,
              "activity_regularizer": null,
              "kernel_constraint": null,
              "bias_constraint": null
            },
            "name": "F_3_3_3",
            "inbound_nodes": [
              [
                [
                  "RDB_Concat_3_3_2",
                  0,
                  0,
                  {}
                ]
              ]
            ]
          },
          {
            "class_name": "Activation",
            "config": {
              "name": "F_3_3_3_Relu",
              "trainable": true,
              "dtype": "float32",
              "activation": "relu"
            },
            "name": "F_3_3_3_Relu",
            "inbound_nodes": [
              [
                [
                  "F_3_3_3",
                  0,
                  0,
                  {}
                ]
              ]
            ]
          },
          {
            "class_name": "Concatenate",
            "config": {
              "name": "RDB_Concat_3_3_3",
              "trainable": true,
              "dtype": "float32",
              "axis": 3
            },
            "name": "RDB_Concat_3_3_3",
            "inbound_nodes": [
              [
                [
                  "RDB_Concat_3_3_2",
                  0,
                  0,
                  {}
                ],
                [
                  "F_3_3_3_Relu",
                  0,
                  0,
                  {}
                ]
              ]
            ]
          },
          {
            "class_name": "Conv2D",
            "config": {
              "name": "F_3_3_4",
              "trainable": true,
              "dtype": "float32",
              "filters": 32,
              "kernel_size": [
                3,
                3
              ],
              "strides": [
                1,
                1
              ],
              "padding": "same",
              "data_format": "channels_last",
              "dilation_rate": [
                1,
                1
              ],
              "groups": 1,
              "activation": "linear",
              "use_bias": true,
              "kernel_initializer": {
                "class_name": "RandomUniform",
                "config": {
                  "minval": -0.05,
                  "maxval": 0.05,
                  "seed": null
                }
              },
              "bias_initializer": {
                "class_name": "Zeros",
                "config": {}
              },
              "kernel_regularizer": null,
              "bias_regularizer": null,
              "activity_regularizer": null,
              "kernel_constraint": null,
              "bias_constraint": null
            },
            "name": "F_3_3_4",
            "inbound_nodes": [
              [
                [
                  "RDB_Concat_3_3_3",
                  0,
                  0,
                  {}
                ]
              ]
            ]
          },
          {
            "class_name": "Activation",
            "config": {
              "name": "F_3_3_4_Relu",
              "trainable": true,
              "dtype": "float32",
              "activation": "relu"
            },
            "name": "F_3_3_4_Relu",
            "inbound_nodes": [
              [
                [
                  "F_3_3_4",
                  0,
                  0,
                  {}
                ]
              ]
            ]
          },
          {
            "class_name": "Concatenate",
            "config": {
              "name": "RDB_Concat_3_3_4",
              "trainable": true,
              "dtype": "float32",
              "axis": 3
            },
            "name": "RDB_Concat_3_3_4",
            "inbound_nodes": [
              [
                [
                  "RDB_Concat_3_3_3",
                  0,
                  0,
                  {}
                ],
                [
                  "F_3_3_4_Relu",
                  0,
                  0,
                  {}
                ]
              ]
            ]
          },
          {
            "class_name": "Conv2D",
            "config": {
              "name": "LFF_3_3",
              "trainable": true,
              "dtype": "float32",
              "filters": 32,
              "kernel_size": [
                3,
                3
              ],
              "strides": [
                1,
                1
              ],
              "padding": "same",
              "data_format": "channels_last",
              "dilation_rate": [
                1,
                1
              ],
              "groups": 1,
              "activation": "linear",
              "use_bias": true,
              "kernel_initializer": {
                "class_name": "RandomUniform",
                "config": {
                  "minval": -0.05,
                  "maxval": 0.05,
                  "seed": null
                }
              },
              "bias_initializer": {
                "class_name": "Zeros",
                "config": {}
              },
              "kernel_regularizer": null,
              "bias_regularizer": null,
              "activity_regularizer": null,
              "kernel_constraint": null,
              "bias_constraint": null
            },
            "name": "LFF_3_3",
            "inbound_nodes": [
              [
                [
                  "RDB_Concat_3_3_4",
                  0,
                  0,
                  {}
                ]
              ]
            ]
          },
          {
            "class_name": "MultiplyBeta",
            "config": {
              "name": "multiply_beta_735",
              "trainable": true,
              "dtype": "float32",
              "beta": 0.2
            },
            "name": "multiply_beta_735",
            "inbound_nodes": [
              [
                [
                  "LFF_3_3",
                  0,
                  0,
                  {}
                ]
              ]
            ]
          },
          {
            "class_name": "Add",
            "config": {
              "name": "LRL_3_3",
              "trainable": true,
              "dtype": "float32"
            },
            "name": "LRL_3_3",
            "inbound_nodes": [
              [
                [
                  "LRL_3_2",
                  0,
                  0,
                  {}
                ],
                [
                  "multiply_beta_735",
                  0,
                  0,
                  {}
                ]
              ]
            ]
          },
          {
            "class_name": "MultiplyBeta",
            "config": {
              "name": "multiply_beta_736",
              "trainable": true,
              "dtype": "float32",
              "beta": 0.2
            },
            "name": "multiply_beta_736",
            "inbound_nodes": [
              [
                [
                  "LRL_3_3",
                  0,
                  0,
                  {}
                ]
              ]
            ]
          },
          {
            "class_name": "Add",
            "config": {
              "name": "RRDB_3_out",
              "trainable": true,
              "dtype": "float32"
            },
            "name": "RRDB_3_out",
            "inbound_nodes": [
              [
                [
                  "RRDB_2_out",
                  0,
                  0,
                  {}
                ],
                [
                  "multiply_beta_736",
                  0,
                  0,
                  {}
                ]
              ]
            ]
          },
          {
            "class_name": "Conv2D",
            "config": {
              "name": "F_4_1_1",
              "trainable": true,
              "dtype": "float32",
              "filters": 32,
              "kernel_size": [
                3,
                3
              ],
              "strides": [
                1,
                1
              ],
              "padding": "same",
              "data_format": "channels_last",
              "dilation_rate": [
                1,
                1
              ],
              "groups": 1,
              "activation": "linear",
              "use_bias": true,
              "kernel_initializer": {
                "class_name": "RandomUniform",
                "config": {
                  "minval": -0.05,
                  "maxval": 0.05,
                  "seed": null
                }
              },
              "bias_initializer": {
                "class_name": "Zeros",
                "config": {}
              },
              "kernel_regularizer": null,
              "bias_regularizer": null,
              "activity_regularizer": null,
              "kernel_constraint": null,
              "bias_constraint": null
            },
            "name": "F_4_1_1",
            "inbound_nodes": [
              [
                [
                  "RRDB_3_out",
                  0,
                  0,
                  {}
                ]
              ]
            ]
          },
          {
            "class_name": "Activation",
            "config": {
              "name": "F_4_1_1_Relu",
              "trainable": true,
              "dtype": "float32",
              "activation": "relu"
            },
            "name": "F_4_1_1_Relu",
            "inbound_nodes": [
              [
                [
                  "F_4_1_1",
                  0,
                  0,
                  {}
                ]
              ]
            ]
          },
          {
            "class_name": "Concatenate",
            "config": {
              "name": "RDB_Concat_4_1_1",
              "trainable": true,
              "dtype": "float32",
              "axis": 3
            },
            "name": "RDB_Concat_4_1_1",
            "inbound_nodes": [
              [
                [
                  "RRDB_3_out",
                  0,
                  0,
                  {}
                ],
                [
                  "F_4_1_1_Relu",
                  0,
                  0,
                  {}
                ]
              ]
            ]
          },
          {
            "class_name": "Conv2D",
            "config": {
              "name": "F_4_1_2",
              "trainable": true,
              "dtype": "float32",
              "filters": 32,
              "kernel_size": [
                3,
                3
              ],
              "strides": [
                1,
                1
              ],
              "padding": "same",
              "data_format": "channels_last",
              "dilation_rate": [
                1,
                1
              ],
              "groups": 1,
              "activation": "linear",
              "use_bias": true,
              "kernel_initializer": {
                "class_name": "RandomUniform",
                "config": {
                  "minval": -0.05,
                  "maxval": 0.05,
                  "seed": null
                }
              },
              "bias_initializer": {
                "class_name": "Zeros",
                "config": {}
              },
              "kernel_regularizer": null,
              "bias_regularizer": null,
              "activity_regularizer": null,
              "kernel_constraint": null,
              "bias_constraint": null
            },
            "name": "F_4_1_2",
            "inbound_nodes": [
              [
                [
                  "RDB_Concat_4_1_1",
                  0,
                  0,
                  {}
                ]
              ]
            ]
          },
          {
            "class_name": "Activation",
            "config": {
              "name": "F_4_1_2_Relu",
              "trainable": true,
              "dtype": "float32",
              "activation": "relu"
            },
            "name": "F_4_1_2_Relu",
            "inbound_nodes": [
              [
                [
                  "F_4_1_2",
                  0,
                  0,
                  {}
                ]
              ]
            ]
          },
          {
            "class_name": "Concatenate",
            "config": {
              "name": "RDB_Concat_4_1_2",
              "trainable": true,
              "dtype": "float32",
              "axis": 3
            },
            "name": "RDB_Concat_4_1_2",
            "inbound_nodes": [
              [
                [
                  "RDB_Concat_4_1_1",
                  0,
                  0,
                  {}
                ],
                [
                  "F_4_1_2_Relu",
                  0,
                  0,
                  {}
                ]
              ]
            ]
          },
          {
            "class_name": "Conv2D",
            "config": {
              "name": "F_4_1_3",
              "trainable": true,
              "dtype": "float32",
              "filters": 32,
              "kernel_size": [
                3,
                3
              ],
              "strides": [
                1,
                1
              ],
              "padding": "same",
              "data_format": "channels_last",
              "dilation_rate": [
                1,
                1
              ],
              "groups": 1,
              "activation": "linear",
              "use_bias": true,
              "kernel_initializer": {
                "class_name": "RandomUniform",
                "config": {
                  "minval": -0.05,
                  "maxval": 0.05,
                  "seed": null
                }
              },
              "bias_initializer": {
                "class_name": "Zeros",
                "config": {}
              },
              "kernel_regularizer": null,
              "bias_regularizer": null,
              "activity_regularizer": null,
              "kernel_constraint": null,
              "bias_constraint": null
            },
            "name": "F_4_1_3",
            "inbound_nodes": [
              [
                [
                  "RDB_Concat_4_1_2",
                  0,
                  0,
                  {}
                ]
              ]
            ]
          },
          {
            "class_name": "Activation",
            "config": {
              "name": "F_4_1_3_Relu",
              "trainable": true,
              "dtype": "float32",
              "activation": "relu"
            },
            "name": "F_4_1_3_Relu",
            "inbound_nodes": [
              [
                [
                  "F_4_1_3",
                  0,
                  0,
                  {}
                ]
              ]
            ]
          },
          {
            "class_name": "Concatenate",
            "config": {
              "name": "RDB_Concat_4_1_3",
              "trainable": true,
              "dtype": "float32",
              "axis": 3
            },
            "name": "RDB_Concat_4_1_3",
            "inbound_nodes": [
              [
                [
                  "RDB_Concat_4_1_2",
                  0,
                  0,
                  {}
                ],
                [
                  "F_4_1_3_Relu",
                  0,
                  0,
                  {}
                ]
              ]
            ]
          },
          {
            "class_name": "Conv2D",
            "config": {
              "name": "F_4_1_4",
              "trainable": true,
              "dtype": "float32",
              "filters": 32,
              "kernel_size": [
                3,
                3
              ],
              "strides": [
                1,
                1
              ],
              "padding": "same",
              "data_format": "channels_last",
              "dilation_rate": [
                1,
                1
              ],
              "groups": 1,
              "activation": "linear",
              "use_bias": true,
              "kernel_initializer": {
                "class_name": "RandomUniform",
                "config": {
                  "minval": -0.05,
                  "maxval": 0.05,
                  "seed": null
                }
              },
              "bias_initializer": {
                "class_name": "Zeros",
                "config": {}
              },
              "kernel_regularizer": null,
              "bias_regularizer": null,
              "activity_regularizer": null,
              "kernel_constraint": null,
              "bias_constraint": null
            },
            "name": "F_4_1_4",
            "inbound_nodes": [
              [
                [
                  "RDB_Concat_4_1_3",
                  0,
                  0,
                  {}
                ]
              ]
            ]
          },
          {
            "class_name": "Activation",
            "config": {
              "name": "F_4_1_4_Relu",
              "trainable": true,
              "dtype": "float32",
              "activation": "relu"
            },
            "name": "F_4_1_4_Relu",
            "inbound_nodes": [
              [
                [
                  "F_4_1_4",
                  0,
                  0,
                  {}
                ]
              ]
            ]
          },
          {
            "class_name": "Concatenate",
            "config": {
              "name": "RDB_Concat_4_1_4",
              "trainable": true,
              "dtype": "float32",
              "axis": 3
            },
            "name": "RDB_Concat_4_1_4",
            "inbound_nodes": [
              [
                [
                  "RDB_Concat_4_1_3",
                  0,
                  0,
                  {}
                ],
                [
                  "F_4_1_4_Relu",
                  0,
                  0,
                  {}
                ]
              ]
            ]
          },
          {
            "class_name": "Conv2D",
            "config": {
              "name": "LFF_4_1",
              "trainable": true,
              "dtype": "float32",
              "filters": 32,
              "kernel_size": [
                3,
                3
              ],
              "strides": [
                1,
                1
              ],
              "padding": "same",
              "data_format": "channels_last",
              "dilation_rate": [
                1,
                1
              ],
              "groups": 1,
              "activation": "linear",
              "use_bias": true,
              "kernel_initializer": {
                "class_name": "RandomUniform",
                "config": {
                  "minval": -0.05,
                  "maxval": 0.05,
                  "seed": null
                }
              },
              "bias_initializer": {
                "class_name": "Zeros",
                "config": {}
              },
              "kernel_regularizer": null,
              "bias_regularizer": null,
              "activity_regularizer": null,
              "kernel_constraint": null,
              "bias_constraint": null
            },
            "name": "LFF_4_1",
            "inbound_nodes": [
              [
                [
                  "RDB_Concat_4_1_4",
                  0,
                  0,
                  {}
                ]
              ]
            ]
          },
          {
            "class_name": "MultiplyBeta",
            "config": {
              "name": "multiply_beta_737",
              "trainable": true,
              "dtype": "float32",
              "beta": 0.2
            },
            "name": "multiply_beta_737",
            "inbound_nodes": [
              [
                [
                  "LFF_4_1",
                  0,
                  0,
                  {}
                ]
              ]
            ]
          },
          {
            "class_name": "Add",
            "config": {
              "name": "LRL_4_1",
              "trainable": true,
              "dtype": "float32"
            },
            "name": "LRL_4_1",
            "inbound_nodes": [
              [
                [
                  "RRDB_3_out",
                  0,
                  0,
                  {}
                ],
                [
                  "multiply_beta_737",
                  0,
                  0,
                  {}
                ]
              ]
            ]
          },
          {
            "class_name": "Conv2D",
            "config": {
              "name": "F_4_2_1",
              "trainable": true,
              "dtype": "float32",
              "filters": 32,
              "kernel_size": [
                3,
                3
              ],
              "strides": [
                1,
                1
              ],
              "padding": "same",
              "data_format": "channels_last",
              "dilation_rate": [
                1,
                1
              ],
              "groups": 1,
              "activation": "linear",
              "use_bias": true,
              "kernel_initializer": {
                "class_name": "RandomUniform",
                "config": {
                  "minval": -0.05,
                  "maxval": 0.05,
                  "seed": null
                }
              },
              "bias_initializer": {
                "class_name": "Zeros",
                "config": {}
              },
              "kernel_regularizer": null,
              "bias_regularizer": null,
              "activity_regularizer": null,
              "kernel_constraint": null,
              "bias_constraint": null
            },
            "name": "F_4_2_1",
            "inbound_nodes": [
              [
                [
                  "LRL_4_1",
                  0,
                  0,
                  {}
                ]
              ]
            ]
          },
          {
            "class_name": "Activation",
            "config": {
              "name": "F_4_2_1_Relu",
              "trainable": true,
              "dtype": "float32",
              "activation": "relu"
            },
            "name": "F_4_2_1_Relu",
            "inbound_nodes": [
              [
                [
                  "F_4_2_1",
                  0,
                  0,
                  {}
                ]
              ]
            ]
          },
          {
            "class_name": "Concatenate",
            "config": {
              "name": "RDB_Concat_4_2_1",
              "trainable": true,
              "dtype": "float32",
              "axis": 3
            },
            "name": "RDB_Concat_4_2_1",
            "inbound_nodes": [
              [
                [
                  "LRL_4_1",
                  0,
                  0,
                  {}
                ],
                [
                  "F_4_2_1_Relu",
                  0,
                  0,
                  {}
                ]
              ]
            ]
          },
          {
            "class_name": "Conv2D",
            "config": {
              "name": "F_4_2_2",
              "trainable": true,
              "dtype": "float32",
              "filters": 32,
              "kernel_size": [
                3,
                3
              ],
              "strides": [
                1,
                1
              ],
              "padding": "same",
              "data_format": "channels_last",
              "dilation_rate": [
                1,
                1
              ],
              "groups": 1,
              "activation": "linear",
              "use_bias": true,
              "kernel_initializer": {
                "class_name": "RandomUniform",
                "config": {
                  "minval": -0.05,
                  "maxval": 0.05,
                  "seed": null
                }
              },
              "bias_initializer": {
                "class_name": "Zeros",
                "config": {}
              },
              "kernel_regularizer": null,
              "bias_regularizer": null,
              "activity_regularizer": null,
              "kernel_constraint": null,
              "bias_constraint": null
            },
            "name": "F_4_2_2",
            "inbound_nodes": [
              [
                [
                  "RDB_Concat_4_2_1",
                  0,
                  0,
                  {}
                ]
              ]
            ]
          },
          {
            "class_name": "Activation",
            "config": {
              "name": "F_4_2_2_Relu",
              "trainable": true,
              "dtype": "float32",
              "activation": "relu"
            },
            "name": "F_4_2_2_Relu",
            "inbound_nodes": [
              [
                [
                  "F_4_2_2",
                  0,
                  0,
                  {}
                ]
              ]
            ]
          },
          {
            "class_name": "Concatenate",
            "config": {
              "name": "RDB_Concat_4_2_2",
              "trainable": true,
              "dtype": "float32",
              "axis": 3
            },
            "name": "RDB_Concat_4_2_2",
            "inbound_nodes": [
              [
                [
                  "RDB_Concat_4_2_1",
                  0,
                  0,
                  {}
                ],
                [
                  "F_4_2_2_Relu",
                  0,
                  0,
                  {}
                ]
              ]
            ]
          },
          {
            "class_name": "Conv2D",
            "config": {
              "name": "F_4_2_3",
              "trainable": true,
              "dtype": "float32",
              "filters": 32,
              "kernel_size": [
                3,
                3
              ],
              "strides": [
                1,
                1
              ],
              "padding": "same",
              "data_format": "channels_last",
              "dilation_rate": [
                1,
                1
              ],
              "groups": 1,
              "activation": "linear",
              "use_bias": true,
              "kernel_initializer": {
                "class_name": "RandomUniform",
                "config": {
                  "minval": -0.05,
                  "maxval": 0.05,
                  "seed": null
                }
              },
              "bias_initializer": {
                "class_name": "Zeros",
                "config": {}
              },
              "kernel_regularizer": null,
              "bias_regularizer": null,
              "activity_regularizer": null,
              "kernel_constraint": null,
              "bias_constraint": null
            },
            "name": "F_4_2_3",
            "inbound_nodes": [
              [
                [
                  "RDB_Concat_4_2_2",
                  0,
                  0,
                  {}
                ]
              ]
            ]
          },
          {
            "class_name": "Activation",
            "config": {
              "name": "F_4_2_3_Relu",
              "trainable": true,
              "dtype": "float32",
              "activation": "relu"
            },
            "name": "F_4_2_3_Relu",
            "inbound_nodes": [
              [
                [
                  "F_4_2_3",
                  0,
                  0,
                  {}
                ]
              ]
            ]
          },
          {
            "class_name": "Concatenate",
            "config": {
              "name": "RDB_Concat_4_2_3",
              "trainable": true,
              "dtype": "float32",
              "axis": 3
            },
            "name": "RDB_Concat_4_2_3",
            "inbound_nodes": [
              [
                [
                  "RDB_Concat_4_2_2",
                  0,
                  0,
                  {}
                ],
                [
                  "F_4_2_3_Relu",
                  0,
                  0,
                  {}
                ]
              ]
            ]
          },
          {
            "class_name": "Conv2D",
            "config": {
              "name": "F_4_2_4",
              "trainable": true,
              "dtype": "float32",
              "filters": 32,
              "kernel_size": [
                3,
                3
              ],
              "strides": [
                1,
                1
              ],
              "padding": "same",
              "data_format": "channels_last",
              "dilation_rate": [
                1,
                1
              ],
              "groups": 1,
              "activation": "linear",
              "use_bias": true,
              "kernel_initializer": {
                "class_name": "RandomUniform",
                "config": {
                  "minval": -0.05,
                  "maxval": 0.05,
                  "seed": null
                }
              },
              "bias_initializer": {
                "class_name": "Zeros",
                "config": {}
              },
              "kernel_regularizer": null,
              "bias_regularizer": null,
              "activity_regularizer": null,
              "kernel_constraint": null,
              "bias_constraint": null
            },
            "name": "F_4_2_4",
            "inbound_nodes": [
              [
                [
                  "RDB_Concat_4_2_3",
                  0,
                  0,
                  {}
                ]
              ]
            ]
          },
          {
            "class_name": "Activation",
            "config": {
              "name": "F_4_2_4_Relu",
              "trainable": true,
              "dtype": "float32",
              "activation": "relu"
            },
            "name": "F_4_2_4_Relu",
            "inbound_nodes": [
              [
                [
                  "F_4_2_4",
                  0,
                  0,
                  {}
                ]
              ]
            ]
          },
          {
            "class_name": "Concatenate",
            "config": {
              "name": "RDB_Concat_4_2_4",
              "trainable": true,
              "dtype": "float32",
              "axis": 3
            },
            "name": "RDB_Concat_4_2_4",
            "inbound_nodes": [
              [
                [
                  "RDB_Concat_4_2_3",
                  0,
                  0,
                  {}
                ],
                [
                  "F_4_2_4_Relu",
                  0,
                  0,
                  {}
                ]
              ]
            ]
          },
          {
            "class_name": "Conv2D",
            "config": {
              "name": "LFF_4_2",
              "trainable": true,
              "dtype": "float32",
              "filters": 32,
              "kernel_size": [
                3,
                3
              ],
              "strides": [
                1,
                1
              ],
              "padding": "same",
              "data_format": "channels_last",
              "dilation_rate": [
                1,
                1
              ],
              "groups": 1,
              "activation": "linear",
              "use_bias": true,
              "kernel_initializer": {
                "class_name": "RandomUniform",
                "config": {
                  "minval": -0.05,
                  "maxval": 0.05,
                  "seed": null
                }
              },
              "bias_initializer": {
                "class_name": "Zeros",
                "config": {}
              },
              "kernel_regularizer": null,
              "bias_regularizer": null,
              "activity_regularizer": null,
              "kernel_constraint": null,
              "bias_constraint": null
            },
            "name": "LFF_4_2",
            "inbound_nodes": [
              [
                [
                  "RDB_Concat_4_2_4",
                  0,
                  0,
                  {}
                ]
              ]
            ]
          },
          {
            "class_name": "MultiplyBeta",
            "config": {
              "name": "multiply_beta_738",
              "trainable": true,
              "dtype": "float32",
              "beta": 0.2
            },
            "name": "multiply_beta_738",
            "inbound_nodes": [
              [
                [
                  "LFF_4_2",
                  0,
                  0,
                  {}
                ]
              ]
            ]
          },
          {
            "class_name": "Add",
            "config": {
              "name": "LRL_4_2",
              "trainable": true,
              "dtype": "float32"
            },
            "name": "LRL_4_2",
            "inbound_nodes": [
              [
                [
                  "LRL_4_1",
                  0,
                  0,
                  {}
                ],
                [
                  "multiply_beta_738",
                  0,
                  0,
                  {}
                ]
              ]
            ]
          },
          {
            "class_name": "Conv2D",
            "config": {
              "name": "F_4_3_1",
              "trainable": true,
              "dtype": "float32",
              "filters": 32,
              "kernel_size": [
                3,
                3
              ],
              "strides": [
                1,
                1
              ],
              "padding": "same",
              "data_format": "channels_last",
              "dilation_rate": [
                1,
                1
              ],
              "groups": 1,
              "activation": "linear",
              "use_bias": true,
              "kernel_initializer": {
                "class_name": "RandomUniform",
                "config": {
                  "minval": -0.05,
                  "maxval": 0.05,
                  "seed": null
                }
              },
              "bias_initializer": {
                "class_name": "Zeros",
                "config": {}
              },
              "kernel_regularizer": null,
              "bias_regularizer": null,
              "activity_regularizer": null,
              "kernel_constraint": null,
              "bias_constraint": null
            },
            "name": "F_4_3_1",
            "inbound_nodes": [
              [
                [
                  "LRL_4_2",
                  0,
                  0,
                  {}
                ]
              ]
            ]
          },
          {
            "class_name": "Activation",
            "config": {
              "name": "F_4_3_1_Relu",
              "trainable": true,
              "dtype": "float32",
              "activation": "relu"
            },
            "name": "F_4_3_1_Relu",
            "inbound_nodes": [
              [
                [
                  "F_4_3_1",
                  0,
                  0,
                  {}
                ]
              ]
            ]
          },
          {
            "class_name": "Concatenate",
            "config": {
              "name": "RDB_Concat_4_3_1",
              "trainable": true,
              "dtype": "float32",
              "axis": 3
            },
            "name": "RDB_Concat_4_3_1",
            "inbound_nodes": [
              [
                [
                  "LRL_4_2",
                  0,
                  0,
                  {}
                ],
                [
                  "F_4_3_1_Relu",
                  0,
                  0,
                  {}
                ]
              ]
            ]
          },
          {
            "class_name": "Conv2D",
            "config": {
              "name": "F_4_3_2",
              "trainable": true,
              "dtype": "float32",
              "filters": 32,
              "kernel_size": [
                3,
                3
              ],
              "strides": [
                1,
                1
…
              "data_format": "channels_last",
              "dilation_rate": [
                1,
                1
              ],
              "groups": 1,
              "activation": "linear",
              "use_bias": true,
              "kernel_initializer": {
                "class_name": "RandomUniform",
                "config": {
                  "minval": -0.05,
                  "maxval": 0.05,
                  "seed": null
                }
              },
              "bias_initializer": {
                "class_name": "Zeros",
                "config": {}
              },
              "kernel_regularizer": null,
              "bias_regularizer": null,
              "activity_regularizer": null,
              "kernel_constraint": null,
              "bias_constraint": null
            },
            "name": "SR",
            "inbound_nodes": [
              [
                [
                  "pixel_shuffle_13",
                  0,
                  0,
                  {}
                ]
              ]
            ]
          }
        ],
        "input_layers": [
          [
            "LR_input",
            0,
            0
          ]
        ],
        "output_layers": [
          [
            "SR",
            0,
            0
          ]
        ]
      }
    }
  },
  "weightsManifest": [
    {
      "paths": [
        "group1-shard1of4.bin",
        "group1-shard2of4.bin",
        "group1-shard3of4.bin",
        "group1-shard4of4.bin"
      ],
      "weights": [
        {
          "name": "F_10_1_1/kernel",
          "shape": [
            3,
            3,
            32,
            32
          ],
          "dtype": "float32"
        },
        {
          "name": "F_10_1_1/bias",
          "shape": [
            32
          ],
          "dtype": "float32"
        },
        {
          "name": "F_10_1_2/kernel",
          "shape": [
            3,
            3,
            64,
            32
          ],
          "dtype": "float32"
        },
        {
          "name": "F_10_1_2/bias",
          "shape": [
            32
          ],
          "dtype": "float32"
        },
        {
          "name": "F_10_1_3/kernel",
          "shape": [
            3,
            3,
            96,
            32
          ],
          "dtype": "float32"
        },
        {
          "name": "F_10_1_3/bias",
          "shape": [
            32
          ],
          "dtype": "float32"
        },
        {
          "name": "F_10_1_4/kernel",
          "shape": [
            3,
            3,
            128,
            32
          ],
          "dtype": "float32"
        },
        {
          "name": "F_10_1_4/bias",
          "shape": [
            32
          ],
          "dtype": "float32"
        },
        {
          "name": "F_10_2_1/kernel",
          "shape": [
            3,
            3,
            32,
            32
          ],
          "dtype": "float32"
        },
        {
          "name": "F_10_2_1/bias",
          "shape": [
            32
          ],
          "dtype": "float32"
        },
        {
          "name": "F_10_2_2/kernel",
          "shape": [
            3,
            3,
            64,
            32
          ],
          "dtype": "float32"
        },
        {
          "name": "F_10_2_2/bias",
          "shape": [
            32
          ],
          "dtype": "float32"
        },
        {
          "name": "F_10_2_3/kernel",
          "shape": [
            3,
            3,
            96,
            32
          ],
          "dtype": "float32"
        },
        {
          "name": "F_10_2_3/bias",
          "shape": [
            32
          ],
          "dtype": "float32"
        },
        {
          "name": "F_10_2_4/kernel",
          "shape": [
            3,
            3,
            128,
            32
          ],
          "dtype": "float32"
        },
        {
          "name": "F_10_2_4/bias",
          "shape": [
            32
          ],
          "dtype": "float32"
        },
        {
          "name": "F_10_3_1/kernel",
          "shape": [
            3,
            3,
            32,
            32
          ],
          "dtype": "float32"
        },
        {
          "name": "F_10_3_1/bias",
          "shape": [
            32
          ],
          "dtype": "float32"
        },
        {
          "name": "F_10_3_2/kernel",
          "shape": [
            3,
            3,
            64,
            32
          ],
          "dtype": "float32"
        },
        {
          "name": "F_10_3_2/bias",
          "shape": [
            32
          ],
          "dtype": "float32"
        },
        {
          "name": "F_10_3_3/kernel",
          "shape": [
            3,
            3,
            96,
            32
          ],
          "dtype": "float32"
        },
        {
          "name": "F_10_3_3/bias",
          "shape": [
            32
          ],
          "dtype": "float32"
        },
        {
          "name": "F_10_3_4/kernel",
          "shape": [
            3,
            3,
            128,
            32
          ],
          "dtype": "float32"
        },
        {
          "name": "F_10_3_4/bias",
          "shape": [
            32
          ],
          "dtype": "float32"
        },
        {
          "name": "F_1_1_1/kernel",
          "shape": [
            3,
            3,
            32,
            32
          ],
          "dtype": "float32"
        },
        {
          "name": "F_1_1_1/bias",
          "shape": [
            32
          ],
          "dtype": "float32"
        },
        {
          "name": "F_1_1_2/kernel",
          "shape": [
            3,
            3,
            64,
            32
          ],
          "dtype": "float32"
        },
        {
          "name": "F_1_1_2/bias",
          "shape": [
            32
          ],
          "dtype": "float32"
        },
        {
          "name": "F_1_1_3/kernel",
          "shape": [
            3,
            3,
            96,
            32
          ],
          "dtype": "float32"
        },
        {
          "name": "F_1_1_3/bias",
          "shape": [
            32
          ],
          "dtype": "float32"
        },
        {
          "name": "F_1_1_4/kernel",
          "shape": [
            3,
            3,
            128,
            32
          ],
          "dtype": "float32"
        },
        {
          "name": "F_1_1_4/bias",
          "shape": [
            32
          ],
          "dtype": "float32"
        },
        {
          "name": "F_1_2_1/kernel",
          "shape": [
            3,
            3,
            32,
            32
          ],
          "dtype": "float32"
        },
        {
          "name": "F_1_2_1/bias",
          "shape": [
            32
          ],
          "dtype": "float32"
        },
        {
          "name": "F_1_2_2/kernel",
          "shape": [
            3,
            3,
            64,
            32
          ],
          "dtype": "float32"
        },
        {
          "name": "F_1_2_2/bias",
          "shape": [
            32
          ],
          "dtype": "float32"
        },
        {
          "name": "F_1_2_3/kernel",
          "shape": [
            3,
            3,
            96,
            32
          ],
          "dtype": "float32"
        },
        {
          "name": "F_1_2_3/bias",
          "shape": [
            32
          ],
          "dtype": "float32"
        },
        {
          "name": "F_1_2_4/kernel",
          "shape": [
            3,
            3,
            128,
            32
          ],
          "dtype": "float32"
        },
        {
          "name": "F_1_2_4/bias",
          "shape": [
            32
          ],
          "dtype": "float32"
        },
        {
          "name": "F_1_3_1/kernel",
          "shape": [
            3,
            3,
            32,
            32
          ],
          "dtype": "float32"
        },
        {
          "name": "F_1_3_1/bias",
          "shape": [
            32
          ],
          "dtype": "float32"
        },
        {
          "name": "F_1_3_2/kernel",
          "shape": [
            3,
            3,
            64,
            32
          ],
          "dtype": "float32"
        },
        {
          "name": "F_1_3_2/bias",
          "shape": [
            32
          ],
          "dtype": "float32"
        },
        {
          "name": "F_1_3_3/kernel",
          "shape": [
            3,
            3,
            96,
            32
          ],
          "dtype": "float32"
        },
        {
          "name": "F_1_3_3/bias",
          "shape": [
            32
          ],
          "dtype": "float32"
        },
        {
          "name": "F_1_3_4/kernel",
          "shape": [
            3,
            3,
            128,
            32
          ],
          "dtype": "float32"
        },
        {
          "name": "F_1_3_4/bias",
          "shape": [
            32
          ],
          "dtype": "float32"
        },
        {
          "name": "F_2_1_1/kernel",
          "shape": [
            3,
            3,
            32,
            32
          ],
          "dtype": "float32"
        },
        {
          "name": "F_2_1_1/bias",
          "shape": [
            32
          ],
          "dtype": "float32"
        },
        {
          "name": "F_2_1_2/kernel",
          "shape": [
            3,
            3,
            64,
            32
          ],
          "dtype": "float32"
        },
        {
          "name": "F_2_1_2/bias",
          "shape": [
            32
          ],
          "dtype": "float32"
        },
        {
          "name": "F_2_1_3/kernel",
          "shape": [
            3,
            3,
            96,
            32
          ],
          "dtype": "float32"
        },
        {
          "name": "F_2_1_3/bias",
          "shape": [
            32
          ],
          "dtype": "float32"
        },
        {
          "name": "F_2_1_4/kernel",
          "shape": [
            3,
            3,
            128,
            32
          ],
          "dtype": "float32"
        },
        {
          "name": "F_2_1_4/bias",
          "shape": [
            32
          ],
          "dtype": "float32"
        },
        {
          "name": "F_2_2_1/kernel",
          "shape": [
            3,
            3,
            32,
            32
          ],
          "dtype": "float32"
        },
        {
          "name": "F_2_2_1/bias",
          "shape": [
            32
          ],
          "dtype": "float32"
        },
        {
          "name": "F_2_2_2/kernel",
          "shape": [
            3,
            3,
            64,
            32
          ],
          "dtype": "float32"
        },
        {
          "name": "F_2_2_2/bias",
          "shape": [
            32
          ],
          "dtype": "float32"
        },
        {
          "name": "F_2_2_3/kernel",
          "shape": [
            3,
            3,
            96,
            32
          ],
          "dtype": "float32"
        },
        {
          "name": "F_2_2_3/bias",
          "shape": [
            32
          ],
          "dtype": "float32"
        },
        {
          "name": "F_2_2_4/kernel",
          "shape": [
            3,
            3,
            128,
            32
          ],
          "dtype": "float32"
        },
        {
          "name": "F_2_2_4/bias",
          "shape": [
            32
          ],
          "dtype": "float32"
        },
        {
          "name": "F_2_3_1/kernel",
          "shape": [
            3,
            3,
            32,
            32
          ],
          "dtype": "float32"
        },
        {
          "name": "F_2_3_1/bias",
          "shape": [
            32
          ],
          "dtype": "float32"
        },
        {
          "name": "F_2_3_2/kernel",
          "shape": [
            3,
            3,
            64,
            32
          ],
          "dtype": "float32"
        },
        {
          "name": "F_2_3_2/bias",
          "shape": [
            32
          ],
          "dtype": "float32"
        },
        {
          "name": "F_2_3_3/kernel",
          "shape": [
            3,
            3,
            96,
            32
          ],
          "dtype": "float32"
        },
        {
          "name": "F_2_3_3/bias",
          "shape": [
            32
          ],
          "dtype": "float32"
        },
        {
          "name": "F_2_3_4/kernel",
          "shape": [
            3,
            3,
            128,
            32
          ],
          "dtype": "float32"
        },
        {
          "name": "F_2_3_4/bias",
          "shape": [
            32
          ],
          "dtype": "float32"
        },
        {
          "name": "F_3_1_1/kernel",
          "shape": [
            3,
            3,
            32,
            32
          ],
          "dtype": "float32"
        },
        {
          "name": "F_3_1_1/bias",
          "shape": [
            32
          ],
          "dtype": "float32"
        },
        {
          "name": "F_3_1_2/kernel",
          "shape": [
            3,
            3,
            64,
            32
          ],
          "dtype": "float32"
        },
        {
          "name": "F_3_1_2/bias",
          "shape": [
            32
          ],
          "dtype": "float32"
        },
        {
          "name": "F_3_1_3/kernel",
          "shape": [
            3,
            3,
            96,
            32
          ],
          "dtype": "float32"
        },
        {
          "name": "F_3_1_3/bias",
          "shape": [
            32
          ],
          "dtype": "float32"
        },
        {
          "name": "F_3_1_4/kernel",
          "shape": [
            3,
            3,
            128,
            32
          ],
          "dtype": "float32"
        },
        {
          "name": "F_3_1_4/bias",
          "shape": [
            32
          ],
          "dtype": "float32"
        },
        {
          "name": "F_3_2_1/kernel",
          "shape": [
            3,
            3,
            32,
            32
          ],
          "dtype": "float32"
        },
        {
          "name": "F_3_2_1/bias",
          "shape": [
            32
          ],
          "dtype": "float32"
        },
        {
          "name": "F_3_2_2/kernel",
          "shape": [
            3,
            3,
            64,
            32
          ],
          "dtype": "float32"
        },
        {
          "name": "F_3_2_2/bias",
          "shape": [
            32
          ],
          "dtype": "float32"
        },
        {
          "name": "F_3_2_3/kernel",
          "shape": [
            3,
            3,
            96,
            32
          ],
          "dtype": "float32"
        },
        {
          "name": "F_3_2_3/bias",
          "shape": [
            32
          ],
          "dtype": "float32"
        },
        {
          "name": "F_3_2_4/kernel",
          "shape": [
            3,
            3,
            128,
            32
          ],
          "dtype": "float32"
        },
        {
          "name": "F_3_2_4/bias",
          "shape": [
            32
          ],
          "dtype": "float32"
        },
        {
          "name": "F_3_3_1/kernel",
          "shape": [
            3,
            3,
            32,
            32
          ],
          "dtype": "float32"
        },
        {
          "name": "F_3_3_1/bias",
          "shape": [
            32
          ],
          "dtype": "float32"
        },
        {
          "name": "F_3_3_2/kernel",
          "shape": [
            3,
            3,
            64,
            32
          ],
          "dtype": "float32"
        },
        {
          "name": "F_3_3_2/bias",
          "shape": [
            32
          ],
          "dtype": "float32"
        },
        {
          "name": "F_3_3_3/kernel",
          "shape": [
            3,
            3,
            96,
            32
          ],
          "dtype": "float32"
        },
        {
          "name": "F_3_3_3/bias",
          "shape": [
            32
          ],
          "dtype": "float32"
        },
        {
          "name": "F_3_3_4/kernel",
          "shape": [
            3,
            3,
            128,
            32
          ],
          "dtype": "float32"
        },
        {
          "name": "F_3_3_4/bias",
          "shape": [
            32
          ],
          "dtype": "float32"
        },
        {
          "name": "F_4_1_1/kernel",
          "shape": [
            3,
            3,
            32,
            32
          ],
          "dtype": "float32"
        },
        {
          "name": "F_4_1_1/bias",
          "shape": [
            32
          ],
          "dtype": "float32"
        },
        {
          "name": "F_4_1_2/kernel",
          "shape": [
            3,
            3,
            64,
            32
          ],
          "dtype": "float32"
        },
        {
          "name": "F_4_1_2/bias",
          "shape": [
            32
          ],
          "dtype": "float32"
        },
        {
          "name": "F_4_1_3/kernel",
          "shape": [
            3,
            3,
            96,
            32
          ],
          "dtype": "float32"
        },
        {
          "name": "F_4_1_3/bias",
          "shape": [
            32
          ],
          "dtype": "float32"
        },
        {
          "name": "F_4_1_4/kernel",
          "shape": [
            3,
            3,
            128,
            32
          ],
          "dtype": "float32"
        },
        {
          "name": "F_4_1_4/bias",
          "shape": [
            32
          ],
          "dtype": "float32"
        },
        {
          "name": "F_4_2_1/kernel",
          "shape": [
            3,
            3,
            32,
            32
          ],
          "dtype": "float32"
        },
        {
          "name": "F_4_2_1/bias",
          "shape": [
            32
          ],
          "dtype": "float32"
        },
        {
          "name": "F_4_2_2/kernel",
          "shape": [
            3,
            3,
            64,
            32
          ],
          "dtype": "float32"
        },
        {
          "name": "F_4_2_2/bias",
          "shape": [
            32
          ],
          "dtype": "float32"
        },
        {
          "name": "F_4_2_3/kernel",
          "shape": [
            3,
            3,
            96,
            32
          ],
          "dtype": "float32"
        },
        {
          "name": "F_4_2_3/bias",
          "shape": [
            32
          ],
          "dtype": "float32"
        },
        {
          "name": "F_4_2_4/kernel",
          "shape": [
            3,
            3,
            128,
            32
          ],
          "dtype": "float32"
        },
        {
          "name": "F_4_2_4/bias",
          "shape": [
            32
          ],
          "dtype": "float32"
        },
        {
          "name": "F_4_3_1/kernel",
          "shape": [
            3,
            3,
            32,
            32
          ],
          "dtype": "float32"
        },
        {
          "name": "F_4_3_1/bias",
          "shape": [
            32
          ],
          "dtype": "float32"
        },
        {
          "name": "F_4_3_2/kernel",
          "shape": [
            3,
            3,
            64,
            32
          ],
          "dtype": "float32"
        },
        {
          "name": "F_4_3_2/bias",
          "shape": [
            32
          ],
          "dtype": "float32"
        },
        {
          "name": "F_4_3_3/kernel",
          "shape": [
            3,
            3,
            96,
            32
          ],
          "dtype": "float32"
        },
        {
          "name": "F_4_3_3/bias",
          "shape": [
            32
          ],
          "dtype": "float32"
        },
        {
          "name": "F_4_3_4/kernel",
          "shape": [
            3,
            3,
            128,
            32
          ],
          "dtype": "float32"
        },
        {
          "name": "F_4_3_4/bias",
          "shape": [
            32
          ],
          "dtype": "float32"
        },
        {
          "name": "F_5_1_1/kernel",
          "shape": [
            3,
            3,
            32,
            32
          ],
          "dtype": "float32"
        },
        {
          "name": "F_5_1_1/bias",
          "shape": [
            32
          ],
          "dtype": "float32"
        },
        {
          "name": "F_5_1_2/kernel",
          "shape": [
            3,
            3,
            64,
            32
          ],
          "dtype": "float32"
        },
        {
          "name": "F_5_1_2/bias",
          "shape": [
            32
          ],
          "dtype": "float32"
        },
        {
          "name": "F_5_1_3/kernel",
          "shape": [
            3,
            3,
            96,
            32
          ],
          "dtype": "float32"
        },
        {
          "name": "F_5_1_3/bias",
          "shape": [
            32
          ],
          "dtype": "float32"
        },
        {
          "name": "F_5_1_4/kernel",
          "shape": [
            3,
            3,
            128,
            32
          ],
          "dtype": "float32"
        },
        {
          "name": "F_5_1_4/bias",
          "shape": [
            32
          ],
          "dtype": "float32"
        },
        {
          "name": "F_5_2_1/kernel",
          "shape": [
            3,
            3,
            32,
            32
          ],
          "dtype": "float32"
        },
        {
          "name": "F_5_2_1/bias",
          "shape": [
            32
          ],
          "dtype": "float32"
        },
        {
          "name": "F_5_2_2/kernel",
          "shape": [
            3,
            3,
            64,
            32
          ],
          "dtype": "float32"
        },
        {
          "name": "F_5_2_2/bias",
          "shape": [
            32
          ],
          "dtype": "float32"
        },
        {
          "name": "F_5_2_3/kernel",
          "shape": [
            3,
            3,
            96,
            32
          ],
          "dtype": "float32"
        },
        {
          "name": "F_5_2_3/bias",
          "shape": [
            32
          ],
          "dtype": "float32"
        },
        {
          "name": "F_5_2_4/kernel",
          "shape": [
            3,
            3,
            128,
            32
          ],
          "dtype": "float32"
        },
        {
          "name": "F_5_2_4/bias",
          "shape": [
            32
          ],
          "dtype": "float32"
        },
        {
          "name": "F_5_3_1/kernel",
          "shape": [
            3,
            3,
            32,
            32
          ],
          "dtype": "float32"
        },
        {
          "name": "F_5_3_1/bias",
          "shape": [
            32
          ],
          "dtype": "float32"
        },
        {
          "name": "F_5_3_2/kernel",
          "shape": [
            3,
            3,
            64,
            32
          ],
          "dtype": "float32"
        },
        {
          "name": "F_5_3_2/bias",
          "shape": [
            32
          ],
          "dtype": "float32"
        },
        {
          "name": "F_5_3_3/kernel",
          "shape": [
            3,
            3,
            96,
            32
          ],
          "dtype": "float32"
        },
        {
          "name": "F_5_3_3/bias",
          "shape": [
            32
          ],
          "dtype": "float32"
        },
        {
          "name": "F_5_3_4/kernel",
          "shape": [
            3,
            3,
            128,
            32
          ],
          "dtype": "float32"
        },
        {
          "name": "F_5_3_4/bias",
          "shape": [
            32
          ],
          "dtype": "float32"
        },
        {
          "name": "F_6_1_1/kernel",
          "shape": [
            3,
            3,
            32,
            32
          ],
          "dtype": "float32"
        },
        {
          "name": "F_6_1_1/bias",
          "shape": [
            32
          ],
          "dtype": "float32"
        },
        {
          "name": "F_6_1_2/kernel",
          "shape": [
            3,
            3,
            64,
            32
          ],
          "dtype": "float32"
        },
        {
          "name": "F_6_1_2/bias",
          "shape": [
            32
          ],
          "dtype": "float32"
        },
        {
          "name": "F_6_1_3/kernel",
          "shape": [
            3,
            3,
            96,
            32
          ],
          "dtype": "float32"
        },
        {
          "name": "F_6_1_3/bias",
          "shape": [
            32
          ],
          "dtype": "float32"
        },
        {
          "name": "F_6_1_4/kernel",
          "shape": [
            3,
            3,
            128,
            32
          ],
          "dtype": "float32"
        },
        {
          "name": "F_6_1_4/bias",
          "shape": [
            32
          ],
          "dtype": "float32"
        },
        {
          "name": "F_6_2_1/kernel",
          "shape": [
            3,
            3,
            32,
            32
          ],
          "dtype": "float32"
        },
        {
          "name": "F_6_2_1/bias",
          "shape": [
            32
          ],
          "dtype": "float32"
        },
        {
          "name": "F_6_2_2/kernel",
          "shape": [
            3,
            3,
            64,
            32
          ],
          "dtype": "float32"
        },
        {
          "name": "F_6_2_2/bias",
          "shape": [
            32
          ],
          "dtype": "float32"
        },
        {
          "name": "F_6_2_3/kernel",
          "shape": [
            3,
            3,
            96,
            32
          ],
          "dtype": "float32"
        },
        {
          "name": "F_6_2_3/bias",
          "shape": [
            32
          ],
          "dtype": "float32"
        },
        {
          "name": "F_6_2_4/kernel",
          "shape": [
            3,
            3,
            128,
            32
          ],
          "dtype": "float32"
        },
        {
          "name": "F_6_2_4/bias",
          "shape": [
            32
          ],
          "dtype": "float32"
        },
        {
          "name": "F_6_3_1/kernel",
          "shape": [
            3,
            3,
            32,
            32
          ],
          "dtype": "float32"
        },
        {
          "name": "F_6_3_1/bias",
          "shape": [
            32
          ],
          "dtype": "float32"
        },
        {
          "name": "F_6_3_2/kernel",
          "shape": [
            3,
            3,
            64,
            32
          ],
          "dtype": "float32"
        },
        {
          "name": "F_6_3_2/bias",
          "shape": [
            32
          ],
          "dtype": "float32"
        },
        {
          "name": "F_6_3_3/kernel",
          "shape": [
            3,
            3,
            96,
            32
          ],
          "dtype": "float32"
        },
        {
          "name": "F_6_3_3/bias",
          "shape": [
            32
          ],
          "dtype": "float32"
        },
        {
          "name": "F_6_3_4/kernel",
          "shape": [
            3,
            3,
            128,
            32
          ],
          "dtype": "float32"
        },
        {
          "name": "F_6_3_4/bias",
          "shape": [
            32
          ],
          "dtype": "float32"
        },
        {
          "name": "F_7_1_1/kernel",
          "shape": [
            3,
            3,
            32,
            32
          ],
          "dtype": "float32"
        },
        {
          "name": "F_7_1_1/bias",
          "shape": [
            32
          ],
          "dtype": "float32"
        },
        {
          "name": "F_7_1_2/kernel",
          "shape": [
            3,
            3,
            64,
            32
          ],
          "dtype": "float32"
        },
        {
          "name": "F_7_1_2/bias",
          "shape": [
            32
          ],
          "dtype": "float32"
        },
        {
          "name": "F_7_1_3/kernel",
          "shape": [
            3,
            3,
            96,
            32
          ],
          "dtype": "float32"
        },
        {
          "name": "F_7_1_3/bias",
          "shape": [
            32
          ],
          "dtype": "float32"
        },
        {
          "name": "F_7_1_4/kernel",
          "shape": [
            3,
            3,
            128,
            32
          ],
          "dtype": "float32"
        },
        {
          "name": "F_7_1_4/bias",
          "shape": [
            32
          ],
          "dtype": "float32"
        },
        {
          "name": "F_7_2_1/kernel",
          "shape": [
            3,
            3,
            32,
            32
          ],
          "dtype": "float32"
        },
        {
          "name": "F_7_2_1/bias",
          "shape": [
            32
          ],
          "dtype": "float32"
        },
        {
          "name": "F_7_2_2/kernel",
          "shape": [
            3,
            3,
            64,
            32
          ],
          "dtype": "float32"
        },
        {
          "name": "F_7_2_2/bias",
          "shape": [
            32
          ],
          "dtype": "float32"
        },
        {
          "name": "F_7_2_3/kernel",
          "shape": [
            3,
            3,
            96,
            32
          ],
          "dtype": "float32"
        },
        {
          "name": "F_7_2_3/bias",
          "shape": [
            32
          ],
          "dtype": "float32"
        },
        {
          "name": "F_7_2_4/kernel",
          "shape": [
            3,
            3,
            128,
            32
          ],
          "dtype": "float32"
        },
        {
          "name": "F_7_2_4/bias",
          "shape": [
            32
          ],
          "dtype": "float32"
        },
        {
          "name": "F_7_3_1/kernel",
          "shape": [
            3,
            3,
            32,
            32
          ],
          "dtype": "float32"
        },
        {
          "name": "F_7_3_1/bias",
          "shape": [
            32
          ],
          "dtype": "float32"
        },
        {
          "name": "F_7_3_2/kernel",
          "shape": [
            3,
            3,
            64,
            32
          ],
          "dtype": "float32"
        },
        {
          "name": "F_7_3_2/bias",
          "shape": [
            32
          ],
          "dtype": "float32"
        },
        {
          "name": "F_7_3_3/kernel",
          "shape": [
            3,
            3,
            96,
            32
          ],
          "dtype": "float32"
        },
        {
          "name": "F_7_3_3/bias",
          "shape": [
            32
          ],
          "dtype": "float32"
        },
        {
          "name": "F_7_3_4/kernel",
          "shape": [
            3,
            3,
            128,
            32
          ],
          "dtype": "float32"
        },
        {
          "name": "F_7_3_4/bias",
          "shape": [
            32
          ],
          "dtype": "float32"
        },
        {
          "name": "F_8_1_1/kernel",
          "shape": [
            3,
            3,
            32,
            32
          ],
          "dtype": "float32"
        },
        {
          "name": "F_8_1_1/bias",
          "shape": [
            32
          ],
          "dtype": "float32"
        },
        {
          "name": "F_8_1_2/kernel",
          "shape": [
            3,
            3,
            64,
            32
          ],
          "dtype": "float32"
        },
        {
          "name": "F_8_1_2/bias",
          "shape": [
            32
          ],
          "dtype": "float32"
        },
        {
          "name": "F_8_1_3/kernel",
          "shape": [
            3,
            3,
            96,
            32
          ],
          "dtype": "float32"
        },
        {
          "name": "F_8_1_3/bias",
          "shape": [
            32
          ],
          "dtype": "float32"
        },
        {
          "name": "F_8_1_4/kernel",
          "shape": [
            3,
            3,
            128,
            32
          ],
          "dtype": "float32"
        },
        {
          "name": "F_8_1_4/bias",
          "shape": [
            32
          ],
          "dtype": "float32"
        },
        {
          "name": "F_8_2_1/kernel",
          "shape": [
            3,
            3,
            32,
            32
          ],
          "dtype": "float32"
        },
        {
          "name": "F_8_2_1/bias",
          "shape": [
            32
          ],
          "dtype": "float32"
        },
        {
          "name": "F_8_2_2/kernel",
          "shape": [
            3,
            3,
            64,
            32
          ],
          "dtype": "float32"
        },
        {
          "name": "F_8_2_2/bias",
          "shape": [
            32
          ],
          "dtype": "float32"
        },
        {
          "name": "F_8_2_3/kernel",
          "shape": [
            3,
            3,
            96,
            32
          ],
          "dtype": "float32"
        },
        {
          "name": "F_8_2_3/bias",
          "shape": [
            32
          ],
          "dtype": "float32"
        },
        {
          "name": "F_8_2_4/kernel",
          "shape": [
            3,
            3,
            128,
            32
          ],
          "dtype": "float32"
        },
        {
          "name": "F_8_2_4/bias",
          "shape": [
            32
          ],
          "dtype": "float32"
        },
        {
          "name": "F_8_3_1/kernel",
          "shape": [
            3,
            3,
            32,
            32
          ],
          "dtype": "float32"
        },
        {
          "name": "F_8_3_1/bias",
          "shape": [
            32
          ],
          "dtype": "float32"
        },
        {
          "name": "F_8_3_2/kernel",
          "shape": [
            3,
            3,
            64,
            32
          ],
          "dtype": "float32"
        },
        {
          "name": "F_8_3_2/bias",
          "shape": [
            32
          ],
          "dtype": "float32"
        },
        {
          "name": "F_8_3_3/kernel",
          "shape": [
            3,
            3,
            96,
            32
          ],
          "dtype": "float32"
        },
        {
          "name": "F_8_3_3/bias",
          "shape": [
            32
          ],
          "dtype": "float32"
        },
        {
          "name": "F_8_3_4/kernel",
          "shape": [
            3,
            3,
            128,
            32
          ],
          "dtype": "float32"
        },
        {
          "name": "F_8_3_4/bias",
          "shape": [
            32
          ],
          "dtype": "float32"
        },
        {
          "name": "F_9_1_1/kernel",
          "shape": [
            3,
            3,
            32,
            32
          ],
          "dtype": "float32"
        },
        {
          "name": "F_9_1_1/bias",
          "shape": [
            32
          ],
          "dtype": "float32"
        },
        {
          "name": "F_9_1_2/kernel",
          "shape": [
            3,
            3,
            64,
            32
          ],
          "dtype": "float32"
        },
        {
          "name": "F_9_1_2/bias",
          "shape": [
            32
          ],
          "dtype": "float32"
        },
        {
          "name": "F_9_1_3/kernel",
          "shape": [
            3,
            3,
            96,
            32
          ],
          "dtype": "float32"
        },
        {
          "name": "F_9_1_3/bias",
          "shape": [
            32
          ],
          "dtype": "float32"
        },
        {
          "name": "F_9_1_4/kernel",
          "shape": [
            3,
            3,
            128,
            32
          ],
          "dtype": "float32"
        },
        {
          "name": "F_9_1_4/bias",
          "shape": [
            32
          ],
          "dtype": "float32"
        },
        {
          "name": "F_9_2_1/kernel",
          "shape": [
            3,
            3,
            32,
            32
          ],
          "dtype": "float32"
        },
        {
          "name": "F_9_2_1/bias",
          "shape": [
            32
          ],
          "dtype": "float32"
        },
        {
          "name": "F_9_2_2/kernel",
          "shape": [
            3,
            3,
            64,
            32
          ],
          "dtype": "float32"
        },
        {
          "name": "F_9_2_2/bias",
          "shape": [
            32
          ],
          "dtype": "float32"
        },
        {
          "name": "F_9_2_3/kernel",
          "shape": [
            3,
            3,
            96,
            32
          ],
          "dtype": "float32"
        },
        {
          "name": "F_9_2_3/bias",
          "shape": [
            32
          ],
          "dtype": "float32"
        },
        {
          "name": "F_9_2_4/kernel",
          "shape": [
            3,
            3,
            128,
            32
          ],
          "dtype": "float32"
        },
        {
          "name": "F_9_2_4/bias",
          "shape": [
            32
          ],
          "dtype": "float32"
        },
        {
          "name": "F_9_3_1/kernel",
          "shape": [
            3,
            3,
            32,
            32
          ],
          "dtype": "float32"
        },
        {
          "name": "F_9_3_1/bias",
          "shape": [
            32
          ],
          "dtype": "float32"
        },
        {
          "name": "F_9_3_2/kernel",
          "shape": [
            3,
            3,
            64,
            32
          ],
          "dtype": "float32"
        },
        {
          "name": "F_9_3_2/bias",
          "shape": [
            32
          ],
          "dtype": "float32"
        },
        {
          "name": "F_9_3_3/kernel",
          "shape": [
            3,
            3,
            96,
            32
          ],
          "dtype": "float32"
        },
        {
          "name": "F_9_3_3/bias",
          "shape": [
            32
          ],
          "dtype": "float32"
        },
        {
          "name": "F_9_3_4/kernel",
          "shape": [
            3,
            3,
            128,
            32
          ],
          "dtype": "float32"
        },
        {
          "name": "F_9_3_4/bias",
          "shape": [
            32
          ],
          "dtype": "float32"
        },
        {
          "name": "LFF_10_1/kernel",
          "shape": [
            3,
            3,
            160,
            32
          ],
          "dtype": "float32"
        },
        {
          "name": "LFF_10_1/bias",
          "shape": [
            32
          ],
          "dtype": "float32"
        },
        {
          "name": "LFF_10_2/kernel",
          "shape": [
            3,
            3,
            160,
            32
          ],
          "dtype": "float32"
        },
        {
          "name": "LFF_10_2/bias",
          "shape": [
            32
          ],
          "dtype": "float32"
        },
        {
          "name": "LFF_10_3/kernel",
          "shape": [
            3,
            3,
            160,
            32
          ],
          "dtype": "float32"
        },
        {
          "name": "LFF_10_3/bias",
          "shape": [
            32
          ],
          "dtype": "float32"
        },
        {
          "name": "LFF_1_1/kernel",
          "shape": [
            3,
            3,
            160,
            32
          ],
          "dtype": "float32"
        },
        {
          "name": "LFF_1_1/bias",
          "shape": [
            32
          ],
          "dtype": "float32"
        },
        {
          "name": "LFF_1_2/kernel",
          "shape": [
            3,
            3,
            160,
            32
          ],
          "dtype": "float32"
        },
        {
          "name": "LFF_1_2/bias",
          "shape": [
            32
          ],
          "dtype": "float32"
        },
        {
          "name": "LFF_1_3/kernel",
          "shape": [
            3,
            3,
            160,
            32
          ],
          "dtype": "float32"
        },
        {
          "name": "LFF_1_3/bias",
          "shape": [
            32
          ],
          "dtype": "float32"
        },
        {
          "name": "LFF_2_1/kernel",
          "shape": [
            3,
            3,
            160,
            32
          ],
          "dtype": "float32"
        },
        {
          "name": "LFF_2_1/bias",
          "shape": [
            32
          ],
          "dtype": "float32"
        },
        {
          "name": "LFF_2_2/kernel",
          "shape": [
            3,
            3,
            160,
            32
          ],
          "dtype": "float32"
        },
        {
          "name": "LFF_2_2/bias",
          "shape": [
            32
          ],
          "dtype": "float32"
        },
        {
          "name": "LFF_2_3/kernel",
          "shape": [
            3,
            3,
            160,
            32
          ],
          "dtype": "float32"
        },
        {
          "name": "LFF_2_3/bias",
          "shape": [
            32
          ],
          "dtype": "float32"
        },
        {
          "name": "LFF_3_1/kernel",
          "shape": [
            3,
            3,
            160,
            32
          ],
          "dtype": "float32"
        },
        {
          "name": "LFF_3_1/bias",
          "shape": [
            32
          ],
          "dtype": "float32"
        },
        {
          "name": "LFF_3_2/kernel",
          "shape": [
            3,
            3,
            160,
            32
          ],
          "dtype": "float32"
        },
        {
          "name": "LFF_3_2/bias",
          "shape": [
            32
          ],
          "dtype": "float32"
        },
        {
          "name": "LFF_3_3/kernel",
          "shape": [
            3,
            3,
            160,
            32
          ],
          "dtype": "float32"
        },
        {
          "name": "LFF_3_3/bias",
          "shape": [
            32
          ],
          "dtype": "float32"
        },
        {
          "name": "LFF_4_1/kernel",
          "shape": [
            3,
            3,
            160,
            32
          ],
          "dtype": "float32"
        },
        {
          "name": "LFF_4_1/bias",
          "shape": [
            32
          ],
          "dtype": "float32"
        },
        {
          "name": "LFF_4_2/kernel",
          "shape": [
            3,
            3,
            160,
            32
          ],
          "dtype": "float32"
        },
        {
          "name": "LFF_4_2/bias",
          "shape": [
            32
          ],
          "dtype": "float32"
        },
        {
          "name": "LFF_4_3/kernel",
          "shape": [
            3,
            3,
            160,
            32
          ],
          "dtype": "float32"
        },
        {
          "name": "LFF_4_3/bias",
          "shape": [
            32
          ],
          "dtype": "float32"
        },
        {
          "name": "LFF_5_1/kernel",
          "shape": [
            3,
            3,
            160,
            32
          ],
          "dtype": "float32"
        },
        {
          "name": "LFF_5_1/bias",
          "shape": [
            32
          ],
          "dtype": "float32"
        },
        {
          "name": "LFF_5_2/kernel",
          "shape": [
            3,
            3,
            160,
            32
          ],
          "dtype": "float32"
        },
        {
          "name": "LFF_5_2/bias",
          "shape": [
            32
          ],
          "dtype": "float32"
        },
        {
          "name": "LFF_5_3/kernel",
          "shape": [
            3,
            3,
            160,
            32
          ],
          "dtype": "float32"
        },
        {
          "name": "LFF_5_3/bias",
          "shape": [
            32
          ],
          "dtype": "float32"
        },
        {
          "name": "LFF_6_1/kernel",
          "shape": [
            3,
            3,
            160,
            32
          ],
          "dtype": "float32"
        },
        {
          "name": "LFF_6_1/bias",
          "shape": [
            32
          ],
          "dtype": "float32"
        },
        {
          "name": "LFF_6_2/kernel",
          "shape": [
            3,
            3,
            160,
            32
          ],
          "dtype": "float32"
        },
        {
          "name": "LFF_6_2/bias",
          "shape": [
            32
          ],
          "dtype": "float32"
        },
        {
          "name": "LFF_6_3/kernel",
          "shape": [
            3,
            3,
            160,
            32
          ],
          "dtype": "float32"
        },
        {
          "name": "LFF_6_3/bias",
          "shape": [
            32
          ],
          "dtype": "float32"
        },
        {
          "name": "LFF_7_1/kernel",
          "shape": [
            3,
            3,
            160,
            32
          ],
          "dtype": "float32"
        },
        {
          "name": "LFF_7_1/bias",
          "shape": [
            32
          ],
          "dtype": "float32"
        },
        {
          "name": "LFF_7_2/kernel",
          "shape": [
            3,
            3,
            160,
            32
          ],
          "dtype": "float32"
        },
        {
          "name": "LFF_7_2/bias",
          "shape": [
            32
          ],
          "dtype": "float32"
        },
        {
          "name": "LFF_7_3/kernel",
          "shape": [
            3,
            3,
            160,
            32
          ],
          "dtype": "float32"
        },
        {
          "name": "LFF_7_3/bias",
          "shape": [
            32
          ],
          "dtype": "float32"
        },
        {
          "name": "LFF_8_1/kernel",
          "shape": [
            3,
            3,
            160,
            32
          ],
          "dtype": "float32"
        },
        {
          "name": "LFF_8_1/bias",
          "shape": [
            32
          ],
          "dtype": "float32"
        },
        {
          "name": "LFF_8_2/kernel",
          "shape": [
            3,
            3,
            160,
            32
          ],
          "dtype": "float32"
        },
        {
          "name": "LFF_8_2/bias",
          "shape": [
            32
          ],
          "dtype": "float32"
        },
        {
          "name": "LFF_8_3/kernel",
          "shape": [
            3,
            3,
            160,
            32
          ],
          "dtype": "float32"
        },
        {
          "name": "LFF_8_3/bias",
          "shape": [
            32
          ],
          "dtype": "float32"
        },
        {
          "name": "LFF_9_1/kernel",
          "shape": [
            3,
            3,
            160,
            32
          ],
          "dtype": "float32"
        },
        {
          "name": "LFF_9_1/bias",
          "shape": [
            32
          ],
          "dtype": "float32"
        },
        {
          "name": "LFF_9_2/kernel",
          "shape": [
            3,
            3,
            160,
            32
          ],
          "dtype": "float32"
        },
        {
          "name": "LFF_9_2/bias",
          "shape": [
            32
          ],
          "dtype": "float32"
        },
        {
          "name": "LFF_9_3/kernel",
          "shape": [
            3,
            3,
            160,
            32
          ],
          "dtype": "float32"
        },
        {
          "name": "LFF_9_3/bias",
          "shape": [
            32
          ],
          "dtype": "float32"
        },
        {
          "name": "PreShuffle/kernel",
          "shape": [
            3,
            3,
            32,
            48
          ],
          "dtype": "float32"
        },
        {
          "name": "PreShuffle/bias",
          "shape": [
            48
          ],
          "dtype": "float32"
        },
        {
          "name": "Pre_blocks_conv/kernel",
          "shape": [
            3,
            3,
            3,
            32
          ],
          "dtype": "float32"
        },
        {
          "name": "Pre_blocks_conv/bias",
          "shape": [
            32
          ],
          "dtype": "float32"
        },
        {
          "name": "SR/kernel",
          "shape": [
            3,
            3,
            3,
            3
          ],
          "dtype": "float32"
        },
        {
          "name": "SR/bias",
          "shape": [
            3
          ],
          "dtype": "float32"
        },
        {
          "name": "post_blocks_conv/kernel",
          "shape": [
            3,
            3,
            32,
            32
          ],
          "dtype": "float32"
        },
        {
          "name": "post_blocks_conv/bias",
          "shape": [
            32
          ],
          "dtype": "float32"
        }
      ]
    }
  ]
}
